Model/best_model.pt (torch, 393973 bytes, 10 tensors)

net.0.weight f4 [16, 1, 3, 3]
00000000: 362e 5dbe 9b7a 78be a8d0 c3bd f9c4 9e3e
00000010: 61ab 8b3e 74f0 28be 7dd0 013e 5125 a63e
00000020: f6e6 8d3e 1c05 373e 8a4a bb3d 4e7d 10bd
00000030: 190b 5ebd 5205 5d3e b398 f5bd d717 57be
00000040: a53a 17bd 601c 963e 11bc 11be f597 b639
00000050: 23ee 873e 8ed7 8dbe 110f 1dbd 6980 bb3b
00000060: 7631 903e 7ba5 92be 839b 613e 01bf 5e3e
00000070: 6997 1fbd d9af 44be db19 753d 8f16 7ebe
00000080: d7b1 6a3e ffb4 113e b991 933e 76e7 aa3e
00000090: 95ed a2be a5c2 9e3e 086e 863e dc8f 843e
000000a0: 4127 dabb 179c cabb 15c2 c0bd 165c 9bbd
000000b0: 1122 72be ab5f 7abe 4ea1 873e 2e39 17be
000000c0: a3b8 313e 9857 d8bd 3a21 1c3e 7b4c 8c3e
000000d0: 8031 d4bd fd5e aa3e 90f1 a6bd fcd3 213e
000000e0: 82e5 08be 0e89 013e 9d33 d33d eca8 523e
000000f0: 2932 913d edfb 223e 6f45 98be 79d9 30be
00000100: 6f9a 11be cbfe 123c 62f8 f03d fb6c 38be
00000110: f5f0 1bbe 5e3c 74be e199 783d dc73 1bbe
00000120: ceb7 b23d aec1 39bd 64cc 3dbe 3b26 75be
00000130: e2b1 a73e 2433 8bbe b761 463d 5878 3abe
00000140: 559d 82bd 9fb1 a03e e23e 4d3e d62d 3abe
00000150: 301c c4bd 3861 973e 3dde 953e 5d0f a3bd
00000160: 415f 28be 59de 713e fd58 b9bd 8e8b 723d
00000170: 1837 83be c95e 933e 0ab6 453d 2a77 173e
00000180: 7c61 ae3e 13b7 dc3c 43d9 183e 576f bc3c
00000190: f6aa e23d ce55 18be e2bb 98be 6622 83be
000001a0: e466 53be b3da 993e a2fc 553e 419a 7ebd
000001b0: 7efe 92be 4018 bbbd 5674 b8bb 50d0 9c3d
000001c0: 9b69 62be 8063 b1bc 00fd 923c 50f1 01be
000001d0: 5691 c8bc 8086 6fbe 54b5 863e 5bdb e23b
000001e0: 007b b03e abb5 b9bc a02a 633e a98f ddbd
000001f0: 2125 ad3e 9362 8a3e 3b42 0fbe aac3 863c
00000200: a43c d53d 36ab ecbb 27a3 563d 5627 38bc
00000210: 5faf 913e d86c 0fbe 692e 953e e164 9f3e
00000220: 81eb 78be c4a5 9c3e b4e9 9bbd 5f27 94be
00000230: 4c0e 8cbe dc13 03bd 7feb 6cbe 952a c23c
-0.2159966 -0.2426552 -0.095612824 0.31009653 0.2727919 -0.16497976 0.12677188 0.32450345
0.27715272 0.17873043 0.091450766 -0.03527575 -0.054209802 0.21584061 -0.11992016 -0.21005188
-0.036921162 0.29318523 -0.14231898 0.00034826962 0.2654887 -0.27703518 -0.038344447 0.005722095
0.28162736 -0.28641877 0.2203198 0.2175255 -0.038962755 -0.19207706 0.05983911 -0.24813293
0.22919403 0.14229201 0.28822115 0.33379716 -0.31821886 0.31007877 0.26255822 0.25891006
-0.0066575115 -0.006183158 -0.09412018 -0.075859234 -0.23645808 -0.24450557 0.26490253 -0.14767906
0.1735559 -0.10563582 0.1524705 0.274021 -0.10361004 0.33275595 -0.08151543 0.15803522
-0.133688 0.12649938 0.10312579 0.20572251 0.070896454 0.15916415 -0.29740474 -0.17270459
-0.14219068 0.00897188 0.11766125 -0.18010323 -0.15228637 -0.23851153 0.060693625 -0.15180916
0.08726464 -0.045350723 -0.18535 -0.23940365 0.327529 -0.27187455 0.048433032 -0.1820997
-0.06377665 0.31385514 0.20043519 -0.18181548 -0.09575689 0.2956636 0.29271117 -0.07961915
-0.16442586 0.23619975 -0.09050176 0.05921512 -0.2562797 0.28783253 0.04826931 0.14791551
0.3405875 0.026942765 0.14926629 0.02300231 0.110677645 -0.14876482 -0.29830843 -0.2561218
-0.20644718 0.30049667 0.20897153 -0.062158827 -0.28709787 -0.09135485 -0.0056291027 0.0765692
-0.22110598 -0.02165389 0.017942905 -0.1268971 -0.024483364 -0.23391151 0.26310217 0.006923122
0.34468842 -0.022669634 0.22184229 -0.108184166 0.3381739 0.2702833 -0.13990109 0.016450722
0.10411957 -0.0072225584 0.052401688 -0.011239847 0.2845411 -0.14006364 0.2913697 0.31131652
-0.24308588 0.3059522 -0.07612935 -0.28936288 -0.27354658 -0.03200136 -0.2313671 0.023701945

net.0.bias f4 [16]
00000000: 7bff 073e 80f4 8b3e ca9c 283c 5c84 393e
00000010: 789f 88be db46 a7bc a770 86be 7e20 9d3e
00000020: 3767 2e3d bbab 7b3e 03cc 343c 4604 0c3e
00000030: b6c6 10be 3a7b a33e 4af3 1bbd 946d bf3d
0.13281052 0.27334976 0.010291288 0.18116897 -0.26684165 -0.020419529 -0.26257822 0.30688852
0.042578902 0.24577229 0.011034968 0.13673505 -0.14138302 0.31929952 -0.038073815 0.09347072

net.3.weight f4 [32, 16, 3, 3]
00000000: fdc7 923c c8b9 943c aeb0 9d3c 0b58 873d
00000010: 18ea 5e3c 83ab 2fbd a659 be3d caed 463c
00000020: 1d58 8c3d 46cb eabc 81ad 33bd f58e f03c
00000030: 1fe4 09bd fd8f 7fba 970a 3d3d fd51 26bd
00000040: a1aa 523c 7800 4c3d ce12 5f3d 4d44 8c3d
00000050: 0f3c 80bc 0598 863d 89d6 293d 2c50 793d
00000060: a9d6 a33d d8b7 bb3d 5e7f 5bbc 9c8c 323d
00000070: 62dd 843d 8876 91bc 08e8 bf3d 24bf da3c
00000080: 3296 b63d 5c5f 0bbd 7d19 473d 0f79 61bd
00000090: 5e54 ba3d e9ef 93bd 5ca8 15bd c6e3 7e3d
000000a0: 4165 283a 8d74 a33d 2a6c 48bc a6a1 463d
000000b0: 5717 9dbd ba1f 453d 70f4 3e3d 79b2 8b3c
000000c0: 0ec5 4f3d bcae 873d 3f6b 24bd 8164 46bc
000000d0: 8472 bb3d fb4f 6abd 20c0 28bd e921 47bb
000000e0: 039e 673c 205c 81bd f8c3 b93d a5cd 883d
000000f0: 07ac 7e3d b3d3 9ebc b795 8a3d 9e81 1c3c
00000100: 90a1 be3d c77b bc3d 931e 353d 621a f13b
00000110: 217e 5a3d 86d3 14bd 95e3 5abd 6bbf 063d
00000120: 9deb 3dbd 52e4 febc d21e 993d 558f 083c
00000130: a99a 12bc 1b2c 71bc 5071 043c 78ed 903d
00000140: a343 6b3c 2d71 6e3d 1797 89bb a013 fb3c
00000150: 912c ae3c 252e c63d 80bd 1c3d 17e2 fa3a
00000160: f46d 60bc 09f2 bb3d cb94 9f3d 4f2f 803d
00000170: 9075 b5bc 298e d9bb 386a ce3c 2744 6fbd
00000180: 4546 8c3d 43ec 0f3c 26a5 d6bc 6313 bd3c
00000190: bfb5 bc3d e0a5 76bd a808 bc3d 1b9a 3d3d
000001a0: 6ba8 3b3d 0b7f 993c 2e2f 803d ef5a 813d
000001b0: 5692 fdbb 2fb3 a6bd 7049 febc ab47 823b
000001c0: 9009 12bd d613 273b f324 363d abda 5f39
000001d0: 56a5 fe3c ca93 64bd a8c5 a63c fc15 893d
000001e0: 0a45 0b3c f785 903d f196 973d a712 06bd
000001f0: b7fb 2dbd ab8d 74bd 1409 acbc da1a 923d
00000200: 2bce b83d 0fa0 43bd 0ba3 d6bc c9cb 1bbc
00000210: f537 903d 9a76 323d 5cc9 61bd 3eb5 36bc
00000220: ed9d 6e3d c548 42ba fd1e cc3c 4ac4 ac3b
00000230: 3849 44bd ddc9 fabc b6e6 7abd a680 183c
00000240: f991 f7b9 b906 293d 7f80 46bd b611 3dbd
00000250: 25e4 1b3d d2d6 9fbc 54e9 113b 4885 49bd
00000260: 23cf 7c3d 51ab 09bd 882c aa3c eaa2 5bbd
00000270: cbbd 28bd 9347 6a3d 7479 963d 047b ce3c
00000280: 169d 0b3d 05b5 7f3d 73be 173d 8790 393d
00000290: f087 843d 57a8 0fbd 66a0 cabc 6d52 7abd
000002a0: e65e 483c de85 75ba 70a4 88bd cf63 95bd
000002b0: 56d5 913d 245c 7b3c dadf 553d 8478 f23c
000002c0: 1042 cd3b f8e2 ae3d 20a6 96bd 9da2 b93d
000002d0: 914b 48bd a46e 11bc 6d98 81bd cf91 8bbd
000002e0: 64e7 12bd 65f5 f73b 029b d6bc 8dd4 ad3d
000002f0: dd60 5fbd 2fc2 a93d 14b2 7e3d 802f a03d
00000300: bdfc 10bd cebc 35bb 40a3 5e3d e5f2 e3bc
00000310: a6c8 0bbc 6d9a 703d 6627 df3c 4d73 2a3d
00000320: 4898 4e3d f631 96bc 0f25 59bd 3759 6b3c
00000330: f339 cfbc 73e9 033d db73 1f3c a16d a8bc
00000340: 669c 663d 25dc 86bd 9662 5f3d ae8a 6bbd
00000350: c807 22bc ad20 3f3d 6bab 353d 3129 003d
00000360: 1e98 3d3c 9cdb 6cbd f557 7f3d 195b 8c3d
00000370: e6ca 37bd c5f0 5c3d 648d 4fbd 5b12 563b
00000380: 7aff cf3c 40dd 663d 6ea7 523b 912b 57bd
00000390: e807 813d 2ad1 d8bc 348f 2abd 1625 47bd
000003a0: ef9a a03d 482b 71bd 33e8 81bd a3f1 883d
000003b0: 7636 af3d 2cac 5f3d f420 74bd 1cbf 833d
000003c0: 54b9 a53d c0f5 563d 8b17 63bd fcd9 4abb
000003d0: 6504 56bd 1d20 94bc bebd 203d 9635 57bd
000003e0: 3052 93bd cb6f 35ba 2089 513d 0847 653d
000003f0: 502e ad3c f8b1 2f3d c33b 46bd 4849 613d
0.017917627 0.018154994 0.019249287 0.0660859 0.013605617 -0.042888176 0.09294443 0.012141654
0.06852744 -0.028661381 -0.043866638 0.029365042 -0.03366482 -0.0009748934 0.046152677 -0.040605534
0.012858064 0.049805135 0.054461293 0.06848965 -0.015653638 0.06571964 0.041464362 0.060867473
0.079999276 0.09165925 -0.013397066 0.043591127 0.06487538 -0.017756715 0.09370428 0.026702471
0.08915366 -0.03402649 0.048608292 -0.05504709 0.09098123 -0.072234936 -0.036537513 0.06222894
0.00064237794 0.07981215 -0.01223282 0.048494004 -0.07670467 0.04812596 0.046619833 0.017052876
0.050725035 0.06625125 -0.04014134 -0.012108923 0.091527015 -0.05720518 -0.04119885 -0.0030385202
0.014136794 -0.063163996 0.09070581 0.066798486 0.062175777 -0.019388055 0.06766837 0.0095523875
0.09308159 0.09203296 0.04421861 0.0073578814 0.053342942 -0.036334537 -0.053439695 0.032897394
-0.046367276 -0.031114731 0.07476582 0.008334954 -0.008948007 -0.014719988 0.008083656 0.070765436
0.014359388 0.0582134 -0.0041989195 0.030649006 0.021261485 0.0967677 0.03826666 0.0019140866
-0.01369809 0.09177024 0.07792052 0.062590234 -0.022150785 -0.0066392613 0.025197133 -0.058414605
0.0684934 0.0087843565 -0.026201796 0.023080533 0.09214353 -0.060216784 0.091813385 0.046289545
0.045814913 0.018737337 0.06258999 0.06316172 -0.007738392 -0.08139645 -0.031040877 0.0039758286
-0.03565365 0.0025494 0.04446883 0.00021348397 0.031084698 -0.055805005 0.020357922 0.06693646
0.008500347 0.07056802 0.07401837 -0.032732632 -0.042476382 -0.059705418 -0.021000423 0.07134028
0.090236984 -0.047760066 -0.026200792 -0.009509035 0.07041923 0.04357014 -0.055123672 -0.01115161
0.05825608 -0.0007411356 0.02491712 0.005272423 -0.04792139 -0.030613834 -0.06125518 0.009308016
-0.0004722027 0.041266177 -0.048462387 -0.04615947 0.038059372 -0.019511614 0.0022264319 -0.049199373
0.06172098 -0.033610646 0.020773187 -0.053622164 -0.041196626 0.057197165 0.07347384 0.025205143
0.034085356 0.062428493 0.03704686 0.045303848 0.064712405 -0.03507265 -0.024734687 -0.061113764
0.012229657 -0.0009365956 -0.06671989 -0.072944276 0.07120769 0.015341792 0.052215435 0.029598482
0.006263979 0.085393846 -0.073559046 0.09064219 -0.04890019 -0.008876476 -0.06327901 -0.0681492
-0.035865203 0.007567095 -0.02619696 0.084878065 -0.054535735 0.08288991 0.062181547 0.0782156
-0.03539728 -0.0027730945 0.054354906 -0.027825782 -0.008531725 0.058741022 0.027240466 0.041613866
0.050438195 -0.01833437 -0.053013857 0.014364532 -0.025296187 0.032205056 0.009732212 -0.020560088
0.056301497 -0.06584958 0.05453738 -0.057505302 -0.0098895505 0.04666202 0.04435293 0.031289283
0.011571912 -0.057826623 0.06233974 0.06853313 -0.044871233 0.053940553 -0.05067195 0.003266475
0.025390375 0.056363344 0.0032143253 -0.052531783 0.06300336 -0.026466925 -0.041640475 -0.048619352
0.07842051 -0.058879167 -0.063431166 0.066867135 0.085553095 0.054607555 -0.05960174 0.064329356
0.08091989 0.05248046 -0.055442374 -0.0030952683 -0.052250285 -0.018081719 0.039243452 -0.052541338
-0.071934104 -0.00069212605 0.051156163 0.055975944 0.021140248 0.042894334 -0.048396837 0.055001527

net.3.bias f4 [32]
00000000: d261 6ebc 282c afbc 6e33 043d fc04 203d
00000010: 545a 14bd bdb2 163d f440 843d 1c56 243d
00000020: 9da0 573c 8705 8fbd 4971 a53d 1e17 a73d
00000030: 42a3 d33a d5b7 d53c e63a 8fbd 89f7 0fbd
00000040: 9f5d 3abd 2f98 a6bc a526 853d c483 cd3c
00000050: 6976 733d 5f43 a4bd 5c98 b93d 3319 b4bc
00000060: eb3c 97bb 5560 6d3d 92f6 acbc f15c 16bd
00000070: d525 7b3d 7ca8 bbbd a23c 9bbd 5214 8c3d
-0.014549689 -0.02138336 0.03227561 0.039067253 -0.036218956 0.03679155 0.06457701 0.040121183
0.013160852 -0.06983476 0.08078248 0.08158706 0.0016146677 0.026088635 -0.06993656 -0.035148177
-0.04549944 -0.020336239 0.065015115 0.025087245 0.059439097 -0.080206625 0.09062263 -0.021984672
-0.0046154163 0.057953198 -0.021113668 -0.03670973 0.061315376 -0.09162995 -0.07579924 0.06839813

net.6.weight f4 [64, 32, 3, 3]
00000000: 8e68 2c3d 5d7e 13bd 9dfe 2a3c 6835 d23c
00000010: 8f86 2bbd 13b6 fa3c 6119 273d fa7d 7cbd
00000020: e908 2abd 01a6 5bbb 5031 92bc d11a 3cbd
00000030: cf2d d6bb 2a76 73bd 7aa5 37bb 17aa e7bc
00000040: bd69 2abd 7351 84bd 6ef7 523d 954f cc3c
00000050: 65bc 0f3d bac3 f0bb e823 df3c 79ed b33b
00000060: 42ce f33c 5681 82bd 44c5 0a3d 9dbf 39bd
00000070: e463 25bd 373a 20bd 18f8 d93c a1f3 993c
00000080: 4ea3 3a3c 1ea9 51bd 8182 2e3d 00f8 553a
00000090: fb8c 94bc 93df 453d 2239 cd3b b8fa 74bd
000000a0: 4673 35bb 0075 8abc 03a8 34bd 40c5 5abd
000000b0: 02fc 6abd a2a2 5abd e2a8 4b3d 4f0a e33b
000000c0: ef90 cabc 5f90 943c 8bd7 9a3c 18df 9a3c
000000d0: 1166 4cbd b55a 4ebc ea5b 29bd 0ae9 eabc
000000e0: b534 f73c 9ae3 313d 5b0b 04bd 516c 0d3d
000000f0: 0b2a 533d b181 493c 3f49 b4bc 4d7a 02bd
00000100: c074 d03b 8db0 1d3d 89dc 83bd 0d61 d7bb
00000110: dba1 e73c 9a44 55bc 5900 083d b354 abbc
00000120: 71e5 503c 13b8 833c 472d cabc a159 f93b
00000130: b636 03bd 6033 7d3c 7ac6 03bd ee11 8ebc
00000140: 38a9 333d 1d52 383d 9cd9 82bc 6074 0a3d
00000150: ff71 60bc dfeb 87bc 77ff dbbc 25b2 31bd
00000160: b729 0cbd 4db3 e7bb 667c 17bc 9752 86bc
00000170: 89a3 d2bc c62a 30bd 27e7 2ebd 7461 54bc
00000180: d70b 293c 0524 49bd 41f4 66bb 2a88 91bc
00000190: 96a2 14bd 13dc 253c a99b 81ba f9c5 42bd
000001a0: 3d1c 953c e5a1 1cbd 48b9 3d3d 6c67 28bd
000001b0: 5540 f03c fcb2 30bd 7d71 ee3a 9de2 2abd
000001c0: 841d 07bd 863f 523d 83df 02bc f3dc a53c
000001d0: c5f0 1bbd 7bee 16bd 7400 96bc 42ab 0bbd
000001e0: abfa 5ebc b7b4 7d3c 7bdb 0cbd 4a42 cfbc
000001f0: 6acc 3b3d 0546 66bd d930 84bd f1da 6dbc
00000200: 8cb5 b43c abe1 473d 971a 3abd 9200 2f3d
00000210: 8181 4d3d f629 39bd 7910 c93c e392 353c
00000220: 5d36 413d cea8 4c3d a797 6fbc 473e 33bc
00000230: cefb 35bd f244 153d 54c0 0e3d 1d6d 20bc
00000240: 2e92 4fb9 4573 dc3c 3305 383d cc85 d1b9
00000250: ab5a 2d3d 5f1b 9c3c 660e 78bc d74e a33c
00000260: 5289 5abc 8ddc dbbc 1512 f5bc 7956 023d
00000270: fb4f 373c c53f f7bc b182 bb3c 6768 163d
00000280: 51dc a93b c2b8 2bbd 5519 533c 4c7a cdbc
00000290: 0525 803c aceb f1bc 1952 4abd e024 843b
000002a0: 02b5 2e3d 2250 53bd 206b b53b 0811 493d
000002b0: f758 dbba 194a 933c 7f38 76bd ee00 5bbb
000002c0: 0fb2 463d 7bb5 36bd 8184 1d3d 767f 25bd
000002d0: 930e 153d e60f 343d fd1d 143d d0b2 81bd
000002e0: d475 44bd 5939 70bd 03f5 0f3d d290 51ba
000002f0: 5a5a 39bd d796 1f3d a50c 363c 25c4 1a3d
00000300: 621d 543d 3bcd b53c 793e 33bd 2918 68bc
00000310: dc10 05bd 0152 64bd 35cc 3dbc 6382 293d
00000320: 7ffe c73a b3c0 69bc 5ef9 373d eee3 1d3d
00000330: 166c eabc e9d9 80bd ccd5 4e3d 8306 d1bc
00000340: ebbe 2bbd 2814 11bd 80fc 853c 2136 4bbc
00000350: 1ef8 2c3d fb4e 61bc 93c2 e5bc f495 0e3d
00000360: f0f3 54bc 8fae 8fba a661 94bb 97c0 6cbd
00000370: 93aa 94bc 6f65 dbbc 8c7b 3cbd 19d8 cebc
00000380: 75f2 1c3d e93f e33b 24be 2d3d e61f c8bc
00000390: a626 953c 752c 66bc ed97 febc c915 da3c
000003a0: 1b95 523d 52f9 24bd edb1 1cbd 0f4e 483d
000003b0: 91a6 273d 58ab 4bbd 7405 d33c bb73 b6ba
000003c0: a5fe 61bc 2315 e8bc 2ef3 dfbb 780b c43b
000003d0: 4cd6 2cbb d6ed 1e3d 1cb0 fc3c 4586 bebb
000003e0: 0353 553d 4db9 0abb 2dfd 11bd cc9d e93b
000003f0: 9d03 8c3c 0ad1 2fbd 3eef a23c cf08 2b3d
0.0420919 -0.03600918 0.010436681 0.025660232 -0.041876372 0.030604398 0.040795688 -0.061643578
-0.041512404 -0.0033515694 -0.01784578 -0.04592401 -0.0065362225 -0.059438862 -0.0028022216 -0.028279347
-0.041604746 -0.06460848 0.0515055 0.024940291 0.035091776 -0.007347551 0.027238801 0.0054909554
0.029761437 -0.06372325 0.033879533 -0.045348752 -0.040378466 -0.039118018 0.026607558 0.01879293
0.011391474 -0.051186673 0.042604927 0.000816226 -0.018133631 0.04830892 0.0062629143 -0.059809417
-0.0027687117 -0.016901493 -0.04410554 -0.05341077 -0.05736924 -0.053377755 0.049721606 0.006928719
-0.024727313 0.018135248 0.018901607 0.018905208 -0.049902026 -0.012594868 -0.04134742 -0.028675575
0.0301765 0.04342995 -0.032237392 0.034527127 0.051553767 0.012298987 -0.022007583 -0.031854916
0.006361574 0.03849845 -0.06438548 -0.0065728487 0.02827542 -0.013016844 0.033203457 -0.020914411
0.012750016 0.016078984 -0.024679793 0.0076095616 -0.0320346 0.015454143 -0.032171704 -0.017342534
0.04386255 0.045000184 -0.015972905 0.03380239 -0.013699054 -0.016591964 -0.026855214 -0.043382782
-0.03421947 -0.007070935 -0.0092459675 -0.016396804 -0.025712745 -0.043009542 -0.042700913 -0.012962688
0.010317764 -0.049106617 -0.0035240802 -0.017765123 -0.036287867 0.010123271 -0.0009888309 -0.047552083
0.018201942 -0.038240332 0.046319276 -0.041114256 0.02932755 -0.043139443 0.0018191781 -0.04172002
-0.032987133 0.051330112 -0.00798786 0.020246958 -0.038071413 -0.036848526 -0.018310763 -0.03409887
-0.013609569 0.01548498 -0.034389 -0.025300164 0.04584924 -0.05621912 -0.064546295 -0.014517532
0.022059225 0.048799198 -0.045435514 0.042725153 0.050172333 -0.045206033 0.024543988 0.011082384
0.047170985 0.049965672 -0.014623559 -0.010940141 -0.044429593 0.036442704 0.034851387 -0.00979164
-0.00019795515 0.026910434 0.044926833 -0.00039963273 0.042322796 0.01905602 -0.015140152 0.019935055
-0.013338404 -0.026838565 -0.029915849 0.031820748 0.011188502 -0.030181775 0.022889467 0.03672066
0.0051837345 -0.041924246 0.012884458 -0.02508273 0.015642652 -0.029531322 -0.0493947 0.004032716
0.04265309 -0.051590092 0.005536452 0.049088508 -0.0016734888 0.017979668 -0.060112473 -0.0033417302
0.048509654 -0.044606667 0.038456444 -0.04040476 0.036390852 0.043960474 0.03616141 -0.06332934
-0.047963932 -0.05864844 0.03514577 -0.0007994297 -0.04525218 0.03896221 0.011111413 0.037784714
0.051785834 0.022192588 -0.04376075 -0.0141659165 -0.03248678 -0.055742268 -0.011584331 0.041384112
0.0015258341 -0.0142671345 0.04491555 0.03854745 -0.028615993 -0.06291563 0.05049686 -0.0255158
-0.04193012 -0.035419613 0.016355753 -0.012403042 0.04222881 -0.013751741 -0.028046882 0.034810975
-0.012997612 -0.0010962057 -0.004528242 -0.057800855 -0.018147742 -0.026781766 -0.04601626 -0.025249528
0.038317163 0.006935109 0.04241766 -0.024429273 0.018206906 -0.014048685 -0.031078303 0.026621716
0.05141173 -0.040276833 -0.03825562 0.048902567 0.040930334 -0.049723953 0.025759436 -0.0013919988
-0.013793622 -0.028330391 -0.006834409 0.0059828125 -0.0026372848 0.038801037 0.030845694 -0.005814346
0.05208112 -0.0021167577 -0.035641838 0.0071294066 0.017091567 -0.042923965 0.01988947 0.041756447

net.6.bias f4 [64]
00000000: 3ceb 19bc a0cc 583d bfae ef3c cd60 7a3d
00000010: dbdb 6f3d 03d9 3abc d0d8 873c 19d9 4d3d
00000020: 596e 04bb 0d9c 893d b764 c6bc 10fe 6bbb
00000030: 5d5b 2a3d e9a1 03bd 5a20 30bd 8ccf 123d
00000040: 3380 06bd 683c fe39 046d 793d 0025 5e3d
00000050: 8d72 1c3c 35f3 32bd 27a3 66bc f2e4 e63c
00000060: e1f5 d83c 2c8a 413d 6c96 9a3d 891f 953d
00000070: 8d9b ccbc 6148 64bd 7575 31bc 8ab2 be3b
00000080: 9e40 c2bc 4175 923b 1a12 113d e0a0 b7bc
00000090: 3e44 9eba 760a ecbb 8312 67bd 263b 663d
000000a0: 1469 fbbc b7c3 9bbc 5f6b 54bd 0d90 19bd
000000b0: 9d69 983d 91ca 30bd e545 06bd 9fae 663c
000000c0: 31ad 653b 36ee 213d 1a6a 143d bd4f 953d
000000d0: 68f6 97bc 3d0d 11bd 50b1 a73c 0dde 883d
000000e0: 4470 43bd d858 36bd 9012 2f3c 0c2f d4bc
000000f0: aed5 023d 70c3 933d d948 283d 8daa c6bc
-0.009394463 0.05292952 0.02925813 0.061127473 0.05855928 -0.011404279 0.016582876 0.05025587
-0.0020207374 0.067192174 -0.024217946 -0.0036009587 0.041591037 -0.03213683 -0.042999603 0.035842463
-0.032837104 0.0004849166 0.06089498 0.054234505 0.009548795 -0.04368897 -0.0140769845 0.028185342
0.026484432 0.04725091 0.07548222 0.072814055 -0.024976516 -0.05573309 -0.010831227 0.0058196234
-0.023712453 0.004469544 0.035417654 -0.022415578 -0.0012074781 -0.0072033955 -0.05641414 0.056208752
-0.030689754 -0.019014223 -0.05186021 -0.037490893 0.07442019 -0.043161932 -0.0327815 0.014079719
0.0035045857 0.039533816 0.036234 0.072905995 -0.018550113 -0.035413016 0.020470291 0.06682978
-0.047714487 -0.04451832 0.010685578 -0.02590134 0.031942062 0.07215011 0.041085098 -0.024251247

net.9.weight f4 [128, 64, 3, 3]
00000000: 7e5c e73c 6437 a9bc 9c6b 8d3c 9451 1ebc
00000010: 5b5a 23bc d1e4 863c c471 02bd 1ee1 9eba
00000020: c2d7 29bc 2764 d3bc 54be c83c 1e4d e1bb
00000030: 64dc 99bb e880 0bbd 8079 263c c68b 05bd
00000040: 93c8 4dbd 7d00 dbbc bf44 29bd 5296 bfbc
00000050: 328a 0f3d 9012 83bc 10c2 e73b 378a f33c
00000060: 3661 37bc 9d93 ac3c fb70 31bc c13d 87bb
00000070: 8e54 eebc 2e5e e23c 4647 48bd acc3 28ba
00000080: df44 4dbb c92b 25bd 0582 b2bc e1e9 9ebc
00000090: 37f7 dcbc 9072 47bd ff0d 543c 0f04 0ebc
000000a0: 1ed8 cbbc fe08 863c e4b5 a2bc 9a56 07bd
000000b0: 2fbb 413c 662a 84bc 01d9 3bbb b12e 1abd
000000c0: 3358 a93c ed3b 2cbc c820 4fbc 6138 29bd
000000d0: d189 d03b cc3b 52bb 0108 913c da13 d8bc
000000e0: 62b7 dbbc a34a f23c fff8 d6bc cc8b 22bc
000000f0: fc9e 563c 59eb 003c a4db e1bb e339 47bc
00000100: 9a2d fcba c036 8fbc 0634 36bd 8fd7 e93c
00000110: a0cd 35bd b928 af3b 0422 ae3c cca1 37bd
00000120: 6654 d83c bbcf ce3c 1ef3 f43c 5d42 423c
00000130: 0400 133d a00f 073d 5e35 41bc 795a 0abd
00000140: 0303 a838 1161 993b a42c ea3c 3470 40bb
00000150: 04da 87bc 4dfa bfbc 32df 4ebd 0e06 f23c
00000160: 012d babc 3b0b 25bd 178e 223a 4707 20bd
00000170: 8206 eb3c 3e70 1e3c 267e cbbc cfdb 96bc
00000180: 37a6 a2bc 1a01 1cbd dfcc 523a ebd8 f2bc
00000190: cf33 e6bc 9848 b63c 5b0b 653c ebcf 443c
000001a0: 62b4 9bbc 8b93 c4bc 9a8a bd3c 7321 df3b
000001b0: a3df 94bc 777c cfbc 1737 b03c b66f 793c
000001c0: 44c0 c93a 4a3e febc ce3e 40bd 3f2d 25bd
000001d0: 6107 0bbd 1fc5 39bd 3fdd bcbc 25b0 0e3d
000001e0: ae17 793b 2d10 863b f1c2 a73c 87df e03b
000001f0: 2183 ffbc 0d1e 83bc 802c c33c 91f7 ab3c
00000200: 5d42 24bc a9c7 b3bc 4f8e 03bc c7f4 ddbc
00000210: c825 f4bc 44af c63c 315a 4bbd a37b f33c
00000220: fecb 9bbc a787 00bd 22d8 8a3c b9c1 46bd
00000230: 1eba 98bc 9ec9 f23c 9674 57bb 70d0 a2bc
00000240: 4497 e9bc 3179 e3bb 23bd 1abd 6c42 d93b
00000250: b80e e43c 2a01 9fbc db3c 4dbd d73d 65bc
00000260: 8648 4ebd 7461 013a 0dfd 4dbd 18d0 463c
00000270: 5154 cbbb 31cf 07bd ea96 cc3c 6996 1a3c
00000280: 5971 05bd 1f95 4ebc 2184 0fbd fd3f 633c
00000290: 6bf7 32bd deec e73c 78d5 dabb 4dc4 31bc
000002a0: 7ade 503c a066 32bd de4f f63c e685 cbbb
000002b0: af4c f2bc 9517 aa3b 387d 49bd 2d2f 20bd
000002c0: 2840 f5bc f92a 063d f68c b53c 8862 ee3c
000002d0: c696 41bc 22d7 80bb a6e7 2d3c 2768 60bc
000002e0: 65b7 933b 3944 853c 28a5 b63b 75ff 013d
000002f0: c360 0dbd 7364 983c 16b6 653c 1865 f6b9
00000300: 1e58 23bd c522 54bc 1aca 30bc 37e2 4abd
00000310: 9d86 48bc 8b3b a2bb c6fe c2bc b2f1 1dbd
00000320: 631f cd3c 3f67 0c3d d03b ec3c eb97 67bc
00000330: 0b7c 613c a049 78bc 8006 ce3b 6cc0 0ebd
00000340: 6140 2bbd 9040 803b 95aa 23bd bde1 993c
00000350: 8d75 ae3b be60 c1bc b983 e3bc 59d1 0b3c
00000360: 58d1 e33c 874a ee3c 1380 1d3b 6bc7 febc
00000370: 6b0b e1bc 81c2 2cbd 57d5 09bd 120e f2bc
00000380: 848b 8bbc a672 0fbd bce3 73bb 687b 653c
00000390: 85f5 a43c bed8 873c 6ce7 8bbc c695 13bb
000003a0: 2a5a dcbc 61dc 29bd 33ec e3bb 55de 20bb
000003b0: e6d6 afbc db73 f0b9 5303 ec3b 0f2b 6e3c
000003c0: d00a 1abc fd3a 8c3c 4640 e3bc ed72 8dbc
000003d0: 61c2 0b3c ee42 853b af59 ff3c 55dd 54bd
000003e0: fe82 99bc 13df 963c 1631 9f3c 0c89 42bc
000003f0: bfc6 56bc 04a7 853c 9597 473c 8102 d73c
0.028242346 -0.020656295 0.017263226 -0.009663004 -0.009970273 0.01646653 -0.031846777 -0.0012121534
-0.010366382 -0.025804592 0.024504818 -0.006875648 -0.004695462 -0.03405848 0.010160804 -0.032604
-0.05024011 -0.026733631 -0.041325327 -0.023387108 0.035043903 -0.016000062 0.0070726946 0.029728992
-0.0111926105 0.021066481 -0.010830159 -0.0041272347 -0.029093053 0.027632799 -0.048896097 -0.0006437849
-0.0031321568 -0.04032496 -0.021790514 -0.019398632 -0.02697335 -0.04869324 0.01294279 -0.00866796
-0.024883326 0.01636171 -0.019862123 -0.033041574 0.011824413 -0.016133498 -0.002866328 -0.037642185
0.02067194 -0.010512334 -0.012642093 -0.041313533 0.0063640852 -0.0032079099 0.017704012 -0.026376653
-0.026820842 0.029576605 -0.026241777 -0.0099210255 0.013099428 0.007868611 -0.0068926383 -0.012159797
-0.0019239665 -0.017482162 -0.044483207 0.02854517 -0.044385552 0.0053454307 0.021256454 -0.044832036
0.026407432 0.025245538 0.029901084 0.011856643 0.035888687 0.032973886 -0.011792509 -0.033777688
8.011425e-05 0.0046807607 0.02858574 -0.0029363753 -0.01658345 -0.023434782 -0.050505824 0.029543903
-0.022726538 -0.040293913 0.00062009826 -0.03906944 0.028689627 0.009670315 -0.024840426 -0.01841536
-0.019854648 -0.038086988 0.00080413924 -0.02964445 -0.028100876 0.022251412 0.013979758 0.012012462
-0.019006912 -0.023996135 0.02313738 0.0068094074 -0.018173045 -0.025327904 0.021510644 0.015224388
0.0015392383 -0.031035561 -0.046934895 -0.040326353 -0.033942584 -0.045354005 -0.023054717 0.034835953
0.00380085 0.004091284 0.020478697 0.006862584 -0.031190457 -0.01600554 0.02382493 0.020992072
-0.010025588 -0.021945791 -0.0080295345 -0.027094258 -0.029803172 0.024253495 -0.04964656 0.02972204
-0.01901817 -0.03137937 0.016948763 -0.048524592 -0.018643435 0.029637154 -0.0032875887 -0.019874781
-0.028514512 -0.0069419374 -0.03777803 0.0066302326 0.02783905 -0.019409735 -0.050106864 -0.013991795
-0.050362132 0.0004935481 -0.050290156 0.012134574 -0.0062051197 -0.033156577 0.024974305 0.009435275
-0.0325788 -0.012608795 -0.035038117 0.013870236 -0.043692987 0.02831119 -0.0066782795 -0.010850024
0.012748355 -0.043554902 0.03006738 -0.0062110303 -0.029577581 0.0051907995 -0.049191684 -0.03910749
-0.029937819 0.032755826 0.022161942 0.029099718 -0.011815732 -0.003931896 0.010614311 -0.013696707
0.0045079463 0.016267883 0.0055738874 0.031737763 -0.034516107 0.018602585 0.014020463 -0.00046996097
-0.039878957 -0.012947743 -0.010790372 -0.04953214 -0.012239126 -0.0049509457 -0.023803126 -0.038560577
0.02503938 0.03427815 0.028837115 -0.014135341 0.013762484 -0.015154272 0.006287396 -0.034851477
-0.041809443 0.0039139464 -0.0399576 0.018784398 0.0053240717 -0.0236057 -0.027772771 0.008533799
0.027809784 0.029088272 0.0024032637 -0.03110095 -0.027471265 -0.04217768 -0.033650722 -0.029547725
-0.0170343 -0.035021447 -0.0037214598 0.014006473 0.020136604 0.016582843 -0.017078124 -0.0022519692
-0.026898462 -0.041469935 -0.0069556474 -0.0024546583 -0.021464776 -0.00045862686 0.0072025447 0.014536633
-0.009401992 0.017117972 -0.027740609 -0.017266715 0.00853023 0.0040668165 0.031170694 -0.05196889
-0.01873922 0.018416917 0.019432586 -0.011873495 -0.013108908 0.01631499 0.012182136 0.026246311

net.9.bias f4 [128]
00000000: c146 d83c 45d4 e5bc d186 0bbd c9dd 463b
00000010: 1fba c2bc 068d 9e3c 48de 01bc cfec fa3c
00000020: df46 a83c 5e9f 0ebd 0af8 283d 48c6 1fbd
00000030: d948 42bc b7e9 f23b 0a4b 873b f6d4 34bd
00000040: 25cf c33c dcf8 bebc a152 433d cbc5 623c
00000050: 1a62 92bb 018a a53c 2c47 f6bc 3569 1bbb
00000060: 2cfa 853c fe13 933b 2c3d 87bc d024 583c
00000070: 5c82 023d 2586 00bd 6eef 253b a903 5c3d
00000080: 5167 ee3c 1de4 10bd d404 0ebc 4e49 393c
00000090: 7d5a 733b ef8b 1fbd e151 f03c 43dd 553d
000000a0: c073 d8bb f238 0c3c 1779 d83c 6490 b63c
000000b0: b24c da3c c2c5 43bd 24ec b63c 6dae 82bb
000000c0: 63b7 293c 7085 41bc 074b 5b3d 3cbd f73c
000000d0: 8fd1 8a3c 1290 cb3c d068 24bd 2f1d 473d
000000e0: 828c f7bc 8d81 1dbc 2aa6 b93c 733b 893c
000000f0: 33a1 ebbc bf17 543d 0f37 58bc 19ec 88bc
00000100: 910c 463d 9a2c 65bc 924e bcbc 2c1b 053d
00000110: 44e8 633b 2ce1 52bd 4803 033c 12ff 3c3d
00000120: a2c1 cabc a98b e83c 7e8d 50bc 2c37 623d
00000130: 94bc 9dbc 231a 1e3a 0a6f 23bd 8a68 663d
00000140: fc3f 6a3c 1573 05bd a7eb 8f3c f38f 2abc
00000150: 099e 453d 6242 3cbd d071 cc3c fa6b 77bc
00000160: 78e8 a03a faca a7bc e3a3 413d 5f2f 803c
00000170: 986e a0bc 7b3a a03c 89ad 53bc fa9e 43bd
00000180: 5ae3 8c3c 3ba5 3b3c 4407 543d 1f10 1f3d
00000190: a673 35bd 250b 37bd 1afe cd3c d0fa 9b3c
000001a0: f71f 513d 780c 32bc 8c9f 123c a157 1ebb
000001b0: 93dc a13c 7d91 36bd e6b1 97bb 51aa 3fbb
000001c0: 4ac2 a63c 74f8 493c bcce d23c 1f11 8cbc
000001d0: 48d7 92bc 7da3 403c 28a9 553b e3c9 923c
000001e0: e94f ff3c cee7 19bc 0922 5f3c 50c4 9f3b
000001f0: 3ede 6dbc 6bb0 bcbb 3e80 e9bc 86e5 393d
0.026400926 -0.02805532 -0.034064118 0.0030344597 -0.02377039 0.019354355 -0.007926531 0.030630497
0.020541606 -0.034819953 0.041252173 -0.039007455 -0.011858189 0.007413115 0.0041288184 -0.044148408
0.023902485 -0.023312025 0.047686223 0.013841103 -0.004467261 0.020207407 -0.030063234 -0.0023713831
0.016354643 0.0044884672 -0.016508661 0.0131923705 0.0318626 -0.03137793 0.0025319713 0.053714428
0.029102 -0.035373796 -0.008668143 0.011308981 0.0037132793 -0.03895181 0.029335918 0.052212965
-0.0066055954 0.008558499 0.026424928 0.022285648 0.0266479 -0.04779602 0.022329397 -0.0039880783
0.010358664 -0.011811599 0.05353835 0.030241601 0.016945628 0.024848972 -0.04013902 0.048611816
-0.030218367 -0.009613407 0.022662241 0.01675198 -0.02876339 0.05178046 -0.013196721 -0.016714143
0.048351828 -0.013987685 -0.022986684 0.032496616 0.0034775892 -0.051484272 0.007996388 0.04614169
-0.024750534 0.028386908 -0.012729047 0.055228397 -0.01925496 0.00060311164 -0.039900817 0.05625204
0.014297482 -0.032580454 0.017568422 -0.010410297 0.048246417 -0.045961745 0.024956614 -0.015101427
0.0012276312 -0.020482529 0.047275435 0.015647588 -0.019583985 0.019559136 -0.012919792 -0.047759034
0.017198253 0.011452968 0.05176474 0.038833734 -0.044299744 -0.044688363 0.02514558 0.019040495
0.051055875 -0.010867231 0.008949172 -0.0024161118 0.019758498 -0.044572342 -0.0046293614 -0.0029245804
0.020356316 0.012327302 0.025733344 -0.017098008 -0.01792492 0.011757729 0.0032602046 0.017918533
0.031166034 -0.009393645 0.013618954 0.004875697 -0.014518319 -0.0057583353 -0.028503533 0.045384906

fc.weight f4 [2, 128]
00000000: 9e38 a53b 9cf1 2a3c 728c 87bd 6f0d d03a
00000010: bc7d 57bd 6e75 75bd a8ed 823d a26b 523d
00000020: 4aa1 abbd a56a 5c3d 3cd7 b4bc d15a 6e3d
00000030: 9abe 49bd 4d33 58bd 25ac 9e3d 7444 af3d
00000040: 13e8 983d 7f73 63bd e44f f23c b3ae f9bc
00000050: 0fab 8ebd b7d9 113d a008 adbb da55 44bd
00000060: 9d9b 2a3d 14cc cebd 3e3e 85bd 5cd3 a33d
00000070: 4e23 40bd 99f9 6f3d 0934 a3bd 1795 adbd
00000080: 08bf c0bd 20c2 a13d 45cb 35bd 4c05 00bd
00000090: 5c27 0b3d 4de1 e83a 1f6a 42bd 0209 983c
000000a0: 9936 bdbd dd22 47bc 429e afbd db50 bebd
000000b0: 3c9d 8c3d 8819 7dbc 9781 bdbd ec69 d1bd
000000c0: 6573 20bd dd99 013d a69e 7d3c 9897 823c
000000d0: 628f 65ba 765d 483d 0e78 403d 1723 dcbc
000000e0: aa71 0bbd dbb8 f0bc 2550 033d 985a cd3c
000000f0: 06e4 c4bd a822 12bd e9b0 03bd 7e4e 843d
00000100: 2d89 c5bd c011 1c3c 8c2c eabc 3e20 0e3d
00000110: 9741 5dbd 43ca a13d 7f54 a4bd 96bd 153c
00000120: bb21 9f3d 1417 69bc ea60 2a3d ad9d 71bd
00000130: b578 953d 78c9 993d 3632 8cbd cf7d c4bd
00000140: 0ac1 aabd 8aad a0bc 0e50 82bd a455 05bd
00000150: 0c27 73bd cadc a53b 2483 033d b82b af3c
00000160: 6293 563d 9afc a1bd f67b afbd 0e51 253c
00000170: 4ae0 de3c 2c7d 60bd ac59 373c aaa1 2c3d
00000180: bc81 cd3c 92b3 12bd cf32 bbbd b042 6fbc
00000190: 5fd1 b0ba 534f 2d3d 4307 c0bd b0be 4bbd
000001a0: 197c f3bb e291 673d de31 823d 195c 893d
000001b0: a35d ea3b e8f6 6d3d 2f33 2cbd 7120 41bd
000001c0: fe6b 343d 15bd abbc ddac 4ebd 0a1f a7bd
000001d0: 20c1 25bd f3fe 0ebd 4364 3cbd e229 5fbd
000001e0: fca2 a53b ee86 afbd 323c b5bd f865 4abb
000001f0: 157c 533c 58fe 10bd 0951 b43d d5f7 22bd
00000200: 6512 003c cbd2 f0bc 6d92 393d c784 5a3d
00000210: 35bc bc3d ab20 533d 8563 d83c 2ac7 203d
00000220: 085d 4c3d 8a45 24bc 30ee 9b3d bbe5 073d
00000230: faba bd3d bc10 a43d 6d33 823d 56dc 183c
00000240: feac c7bc 54b4 463d 81be c33d 6011 6fbd
00000250: d60f 0dbc ea88 6b3c be2c 0ebd 13ad 40bd
00000260: 5f67 f83c 6bc9 9d3d 796f 7dbd bf47 6abd
00000270: c5a6 6e3d c729 07bd 2404 183d 6c57 debc
00000280: a60d 2e3c d16c 48bd 0fb3 bf3c 25fd 91bd
00000290: 3254 07bc 51ea a0bd e2c1 5b3d 416f 7d3d
000002a0: 172f 2abd 7f6d 32bd 3ba7 d03d 22c1 c1bb
000002b0: caf6 83bd 1d25 f2bc 84b5 543d 6476 3ebd
000002c0: 6ed7 51bd b30f cfbc 7ade 813d 3e50 07bd
000002d0: c5a4 35bd 06f9 85bd 1caf 9abc 122e d13c
000002e0: bc27 993c d327 8bbd dc41 113d dc07 8f3c
000002f0: 4263 1f3d 77b8 cc3d f514 7ebb 2f67 a6bd
00000300: 43be 2f3d 4f23 9fbd 7f6d 40bd 9069 1b3d
00000310: f8aa 27ba 77ab 4b3d a60f 323c 77b7 aa3d
00000320: 31bb 433d faac 743d a659 75bd bc15 d0bb
00000330: bce6 3f3c 4b88 8cbc 9806 b33b f49c 783d
00000340: 2305 563d e885 81bd 406a 5a3c 0f41 a33c
00000350: 2df7 a53c 7df3 4ebd 373e 26bd 0eba 25bd
00000360: 1b9c 5bbd f064 2abd e43e 9c3d 8496 b3bb
00000370: e2f9 c43c 2cd4 933c 8e6b 8a3d 0bdd 88bc
00000380: 547d 75bd 5177 47bd a7c6 b2bc c058 8a3d
00000390: 2db2 abbd c056 ba3c 06dd de3c 1631 9f3a
000003a0: 634b a63d 21ae d43a acde 18bd e9f6 493d
000003b0: b94a 6d3d c7ad d43c 6908 06bd ce5a 843d
000003c0: fa4c 7fbd fd90 223d 36bc 92bd 9ee1 9dbd
000003d0: 8a99 183d cee2 8d3d 48a3 ca3d 9d7f b63b
000003e0: ee61 283d 0f79 b63d 0775 62bd 370e 1a3c
000003f0: 6282 9e3d 59c3 74bd 46e9 2cbd 16b4 e63c
0.0050421497 0.010433581 -0.06618585 0.0015873144 -0.052610144 -0.059926443 0.063929856 0.051372178
-0.08380373 0.05381264 -0.022075288 0.058192078 -0.049254037 -0.0527833 0.07747678 0.08557978
0.0746614 -0.055530068 0.02957911 -0.03047881 -0.069662206 0.03560802 -0.005280569 -0.047933437
0.04165231 -0.100975186 -0.065060124 0.07999298 -0.04690867 0.058587644 -0.07968909 -0.08475702
-0.09411436 0.078983545 -0.044383306 -0.03125505 0.033973083 0.001776734 -0.047464486 0.018558983
-0.09238929 -0.012154308 -0.08575107 -0.09292766 0.068659276 -0.015447982 -0.09253233 -0.10225281
-0.03917255 0.031640876 0.015479719 0.015941426 -0.00087570224 0.048917256 0.046989493 -0.0268722
-0.034043945 -0.029385021 0.032058854 0.025067613 -0.096138045 -0.035677582 -0.032151137 0.06460284
-0.09645305 0.009525716 -0.028585695 0.034698717 -0.05401763 0.078999065 -0.08023929 0.009139439
0.077701055 -0.014226694 0.04159633 -0.058988262 0.07298414 0.0750913 -0.068455145 -0.095943086
-0.083376005 -0.019614 -0.063629255 -0.032552376 -0.05936341 0.0050617205 0.032107487 0.021383151
0.05238665 -0.07909508 -0.085685655 0.010090126 0.027206559 -0.054806873 0.011190813 0.042146362
0.025086276 -0.035815783 -0.0914055 -0.014603302 -0.0013490132 0.042311978 -0.09376385 -0.0497424
-0.007430565 0.05653561 0.06357168 0.06707019 0.0071522756 0.058096796 -0.042041 -0.04715008
0.044048302 -0.020964185 -0.050457824 -0.08160217 -0.04046738 -0.034911107 -0.045994055 -0.054483302
0.0050548296 -0.08570658 -0.08849372 -0.0030883532 0.012908001 -0.03539881 0.08804519 -0.039787132
0.007816886 -0.029397389 0.045305658 0.053349283 0.09215585 0.051544826 0.026414642 0.039252438
0.04989341 -0.010026345 0.0761379 0.033178072 0.092641786 0.08011004 0.06357465 0.009329876
-0.024374481 0.048511818 0.0955782 -0.05836618 -0.008609733 0.014375905 -0.03471064 -0.047040056
0.030322729 0.07704433 -0.061873887 -0.05719733 0.058264513 -0.032998826 0.037113324 -0.027141295
0.010623371 -0.0489319 0.023400811 -0.071283616 -0.00825982 -0.07857192 0.053651698 0.061873678
-0.041548815 -0.043561455 0.10188147 -0.005912916 -0.06443556 -0.029558713 0.05193092 -0.046499625
-0.05123084 -0.02527604 0.06341262 -0.03303551 -0.04434659 -0.06541638 -0.018882327 0.025534663
0.018695705 -0.06794705 0.0354632 0.017459802 0.03891302 0.099961214 -0.0038769816 -0.081251495
0.042906057 -0.077704065 -0.046979424 0.03794247 -0.0006396021 0.04972407 0.010867989 0.083357744
0.04778594 0.059735276 -0.05989995 -0.006350247 0.011712726 -0.017154833 0.0054634325 0.060696557
0.052250993 -0.06324369 0.013330996 0.019928483 0.020259464 -0.050525177 -0.040586676 -0.04046064
-0.05361567 -0.041600168 0.07629183 -0.0054805893 0.024044935 0.018045507 0.06758796 -0.016706964
-0.059933975 -0.048697773 -0.02182324 0.06755209 -0.08383594 0.022746444 0.027205002 0.0012145366
0.081198476 0.0016226211 -0.03732173 0.049307737 0.05793259 0.02596177 -0.032722864 0.06462632
-0.06232927 0.039689053 -0.07164805 -0.07709049 0.0372558 0.06928025 0.09894425 0.005569412
0.041109018 0.08909809 -0.055287387 0.009402803 0.07739712 -0.05975661 -0.042214654 0.028162044

fc.bias f4 [2]
00000000: f73c 34bd 96a2 643d
-0.044003453 0.055819117
