Model/final_model.pt (torch, 393989 bytes, 10 tensors)

net.0.weight f4 [16, 1, 3, 3]
0	0xbe5d2108	-0.21594632
1	0xbe786d6d	-0.24260493
2	0xbdc3b644	-0.09556249
3	0x3e9ecb89	0.3101466
4	0x3e8bb1f1	0.27284196
5	0xbe28e34b	-0.16492955
6	0x3e01dda0	0.126822
7	0x3ea62be1	0.32455352
8	0x3e8ded86	0.27720279
9	0x3e3711ba	0.17877856
10	0x3dbb63ce	0.091498956
11	0xbd104abc	-0.035227522
12	0xbd5dd894	-0.054161623
13	0x3e5d11f3	0.21588878
14	0xbdf57f6b	-0.11987194
15	0xbe570b35	-0.21000369
16	0xbd17081e	-0.036872976
17	0x3e9622b0	0.2932334
18	0xbe11aed5	-0.1422685
19	0x39d0f79d	0.00039857338
20	0x3e87f4a9	0.26553848
21	0xbe8dd0f0	-0.2769847
22	0xbd1cda44	-0.03829409
23	0x3bbd2353	0.0057720332
24	0x3e903810	0.28167772
25	0xbe929ee9	-0.28636864
26	0x3e61a89b	0.22036974
27	0x3e5ecb8e	0.21757337
28	0xbd1f6534	-0.038914874
29	0xbe44a34c	-0.19202918
30	0x3d754c0c	0.059886977
31	0xbe7e0a02	-0.24808505
32	0x3e6abe64	0.22924191
33	0x3e11c18b	0.14233987
34	0x3e9397fb	0.2882689
35	0x3eaaedb8	0.3338449
36	0xbea2e769	-0.31817177
37	0x3e9ec8d7	0.31012604
38	0x3e86743a	0.2626055
39	0x3e849609	0.25895718
40	0xbbd89b2c	-0.006610295
41	0xbbc91064	-0.006135987
42	0xbdc0a8e8	-0.09407216
43	0xbd9b42d9	-0.075811096
44	0xbe7216a3	-0.23641448
45	0xbe7a54ec	-0.24446458
46	0x3e87a6b9	0.26494387
47	0xbe172ec9	-0.14763941
48	0x3e31c416	0.17359957
49	0xbdd84095	-0.10559193
50	0x3e1c2c72	0.1525133
51	0x3e8c5254	0.2740656
52	0xbdd41a18	-0.103565395
53	0x3eaa64b5	0.33279958
54	0xbda6da0a	-0.081470564
55	0x3e21e01c	0.15808147
56	0xbe08d9ed	-0.13364382
57	0x3e0194f0	0.12654471
58	0x3dd34bd0	0.103171945
59	0x3e52b4ad	0.20576735
60	0x3d914aaa	0.07094319
61	0x3e230842	0.15921119
62	0xbe983fa2	-0.29736048
63	0xbe30ce23	-0.17266135
64	0xbe118f19	-0.14214744
65	0x3c13b45e	0.009015171
66	0x3df10f08	0.11770445
67	0xbe3861ac	-0.18006009
68	0xbe1be5a3	-0.15224318
69	0xbe74310d	-0.23846836
70	0x3d78c727	0.0607368
71	0xbe1b688c	-0.151766
72	0x3db2cf0e	0.08730899
73	0xbd3993f7	-0.045307126
74	0xbe3dc0c5	-0.18530567
75	0xbe751aa5	-0.23935945
76	0x3ea7b796	0.32757252
77	0xbe8b2d5d	-0.27183047
78	0x3d468fbe	0.048476927
79	0xbe3a6d28	-0.18205702
80	0xbd828639	-0.06373257
81	0x3ea0b7cd	0.3139023
82	0x3e4d4b43	0.20048241
83	0xbe3a2175	-0.18176825
84	0xbdc40370	-0.09570968
85	0x3e976766	0.29571074
86	0x3e95e46b	0.29275832
87	0xbda2f69e	-0.07957195
88	0xbe2852e0	-0.16437864
89	0x3e71eaba	0.23624697
90	0xbdb93fe1	-0.09045387
91	0x3d72bdcb	0.059263032
92	0xbe8330d2	-0.25623184
93	0x3e93650f	0.2878804
94	0x3d45e849	0.048317228
95	0x3e1783ba	0.14796343
96	0x3eae67c2	0.34063536
97	0x3cdd1ba0	0.026990712
98	0x3e18e5d3	0.14931421
99	0x3cbccef3	0.0230479
100	0x3de2c2c5	0.110723056
101	0xbe1849ef	-0.14871953
102	0xbe98b5ef	-0.29826304
103	0xbe831c75	-0.25607648
104	0xbe535b02	-0.20640185
105	0x3e99e0ab	0.3005422
106	0x3e560893	0.20901708
107	0xbd7e6a89	-0.06211332
108	0xbe92fe7e	-0.28709787
109	0xbdbb1840	-0.09135485
110	0xbbb87456	-0.0056291027
111	0x3d9cd050	0.0765692
112	0xbe62699b	-0.22110598
113	0xbcb16380	-0.02165389
114	0x3c92fd00	0.017942905
115	0xbe01f150	-0.1268971
116	0xbcc89156	-0.024483364
117	0xbe6f7978	-0.2338618
118	0x3e86bbd4	0.26315176
119	0x3be47bdd	0.0069727735
120	0x3eb08182	0.34473807
121	0xbcb94d92	-0.022619996
122	0x3e6337a2	0.22189191
123	0xbddd7598	-0.10813445
124	0x3ead2ba1	0.3382235
125	0x3e8a6913	0.2703329
126	0xbe0f3502	-0.13985065
127	0x3c872da0	0.016501248
128	0x3dd55718	0.104170024
129	0xbbeb0350	-0.0071720257
130	0x3d56d818	0.052452177
131	0xbc3753be	-0.011189399
132	0x3e91b5f8	0.28459144
133	0xbe0f5fa3	-0.14001326
134	0x3e9534fc	0.29141986
135	0x3e9f5fab	0.31127676
136	0xbe78f5f9	-0.24312581
137	0x3e9ca086	0.3059122
138	0xbd9bfe86	-0.07616906
139	0xbe942c97	-0.2894027
140	0xbe8c1388	-0.2735865
141	0xbd033d79	-0.032041047
142	0xbe6cf5ec	-0.23140687
143	0x3cc1d6cc	0.023661993

net.0.bias f4 [16]
0	0x3e080c58	0.13285959
1	0x3e8bfab2	0.27339703
2	0x3c296d28	0.010340966
3	0x3e3990ba	0.18121615
4	0xbe889944	-0.26679432
5	0xbca71f07	-0.020400537
6	0xbe866a89	-0.26253155
7	0x3e9d2624	0.3069316
8	0x3d2e98d7	0.04262623
9	0x3e7bb7ea	0.24581876
10	0x3c35924f	0.011082246
11	0x3e0c1019	0.13678016
12	0xbe10c6b6	-0.14138302
13	0x3ea381a6	0.3193485
14	0xbd1bbed1	-0.038023774
15	0x3dbf5884	0.09343055

net.3.weight f4 [32, 16, 3, 3]
0	0x3c93295f	0.017964063
1	0x3c951b1c	0.018201403
2	0x3c9e11f5	0.019295672
3	0x3d877060	0.06613231
4	0x3c5facd3	0.013652044
5	0xbd2f7ae0	-0.042841792
6	0x3dbe71f8	0.092990816
7	0x3c47b071	0.012188063
8	0x3d8c706d	0.06857381
9	0xbcea6a52	-0.02861515
10	0xbd337d15	-0.04382046
11	0x3cf0efd5	0.029411236
12	0xbd09b3aa	-0.033618607
13	0xba7372cb	-0.000928682
14	0x3d3d3afe	0.046198837
15	0xbd26218b	-0.040559333
16	0x3c536c6d	0.012904269
17	0x3d4c30df	0.049851295
18	0x3d5f44af	0.05450886
19	0x3d8c5cf4	0.06853667
20	0xbc7fb0fa	-0.015606159
21	0x3d86b116	0.06576745
22	0x3d2a07dd	0.041511405
23	0x3d7981f9	0.060914967
24	0x3da3efbe	0.080047116
25	0x3dbbd084	0.091706306
26	0xbc5ab730	-0.013349339
27	0x3d32bd3a	0.04363749
28	0x3d84f5aa	0.06492169
29	0xbc911563	-0.017710393
30	0x3dc00056	0.09375064
31	0x3cdb2059	0.026748823
32	0x3db6ae78	0.08919996
33	0xbd0b2ec1	-0.033980135
34	0x3d474a15	0.048654635
35	0xbd614883	-0.055000793
36	0x3dba687f	0.09101962
37	0xbd93df9d	-0.07220385
38	0xbd157e49	-0.036497388
39	0x3d7f159d	0.06227647
40	0x3a34d453	0.0006898094
41	0x3da38d6a	0.07985957
42	0xbc47b483	-0.012189033
43	0x3d46c99b	0.04853211
44	0xbd9d0977	-0.07667821
45	0x3d45507d	0.048172463
46	0x3d3f2527	0.04666629
47	0x3c8c13dd	0.017099315
48	0x3d4ff5d4	0.05077155
49	0x3d87c715	0.06629769
50	0xbd243a8d	-0.0400949
51	0xbc45a169	-0.012062409
52	0x3dbb8add	0.091573454
53	0xbd6a1f4a	-0.057158746
54	0xbd289394	-0.041156366
55	0xbb444778	-0.0029949825
56	0x3c683cab	0.014174621
57	0xbd814419	-0.06311817
58	0x3db9dc1a	0.09075184
59	0x3d88e1f6	0.06683724
60	0x3d7edb26	0.062220715
61	0xbc9e75fd	-0.01934337
62	0x3d8aa83e	0.06770371
63	0x3c1d3a8f	0.009596481
64	0x3dbeb8a1	0.09312559
65	0x3dbc92e6	0.09207706
66	0x3d354cd0	0.044262707
67	0x3bf28b48	0.0074018575
68	0x3d5aac56	0.05338701
69	0xbd14a531	-0.03629035
70	0xbd5ab56c	-0.053395674
71	0x3d06eda3	0.03294147
72	0xbd3dba4c	-0.046320245
73	0xbcfe825b	-0.031068018
74	0x3d993754	0.07481256
75	0x3c0954de	0.00838205
76	0xbc11d6cf	-0.008901312
77	0xbc7067d9	-0.014673197
78	0x3c0536fc	0.008130785
79	0x3d9105fd	0.0708122
80	0x3c6c07e3	0.014406177
81	0x3d6ea1bc	0.05825971
82	0xbb8812a5	-0.004152613
83	0x3cfb74ad	0.030695284
84	0x3cae8dbb	0.021307817
85	0x3dc6466a	0.09681399
86	0x3d1cee01	0.038312916
87	0x3b007a5a	0.0019604177
88	0xbc5fabb9	-0.013651782
89	0x3dbc0a49	0.09181649
90	0x3d9fad39	0.077967115
91	0x3d8047b9	0.0626368
92	0xbcb513e1	-0.022104206
93	0xbbd806db	-0.006592614
94	0x3ccecbfb	0.02524375
95	0xbd6f134f	-0.058368023
96	0x3d8c5eb2	0.06853999
97	0x3c10afd2	0.008830981
98	0xbcd64376	-0.026155215
99	0x3cbd7043	0.02312482
100	0x3dbcccf2	0.09218778
101	0xbd767743	-0.06017233
102	0x3dbc1fe4	0.0918577
103	0x3d3dc880	0.04633379
104	0x3d3bd6fe	0.04585933
105	0x3c99dc14	0.0187817
106	0x3d804665	0.06263427
107	0x3d817232	0.06320609
108	0xbbfd9256	-0.007738392
109	0xbda6b32f	-0.08139645
110	0xbcfe4970	-0.031040877
111	0x3b8247ab	0.0039758286
112	0xbd120990	-0.03565365
113	0x3b2713d6	0.0025494
114	0x3d3624f3	0.04446883
115	0x395fdaab	0.00021348397
116	0x3cfea556	0.031084698
117	0xbd646345	-0.055758733
118	0x3ca726b3	0.020404195
119	0x3d892e34	0.06698266
120	0x3c0c0741	0.008546651
121	0x3d909e36	0.07061426
122	0x3d97af2a	0.07406457
123	0xbd05e224	-0.032686368
124	0xbd2dcb37	-0.04243013
125	0xbd745d33	-0.059659194
126	0xbcaba659	-0.020953344
127	0x3d923382	0.071387306
128	0x3db8e6d0	0.09028399
129	0xbd436eaf	-0.047712978
130	0xbcd6405d	-0.026153738
131	0xbc1b0687	-0.009462005
132	0x3d9050a4	0.07046631
133	0x3d32a7ee	0.04361718
134	0xbd619811	-0.055076662
135	0xbc35fc5f	-0.011107533
136	0x3d6ecbea	0.058299936
137	0xba36bfe5	-0.00069713435
138	0x3ccc7b9a	0.024961282
139	0x3bae3527	0.005316395
140	0xbd441b13	-0.047877382
141	0xbcfa6d22	-0.030569617
142	0xbd7ab88d	-0.061211158
143	0x3c193948	0.009352036
144	0xb9e1511a	-0.0004297577
145	0x3d293343	0.041308653
146	0xbd4653ca	-0.04841975
147	0xbd3ce546	-0.04611709
148	0x3d1c10a0	0.038101792
149	0xbc9f7d93	-0.019469058
150	0x3b14b128	0.0022688601
151	0xbd4958ce	-0.049156956
152	0x3d7cfbb7	0.06176349
153	0xbd097f1e	-0.033568494
154	0x3caa8501	0.020815374
155	0xbd5b7695	-0.053579886
156	0xbd28918f	-0.04115444
157	0x3d6a73d7	0.05723938
158	0x3d968fa2	0.073516145
159	0x3cced383	0.025247341
160	0x3d0bc95a	0.03412757
161	0x3d7fe16a	0.06247083
162	0x3d17ee81	0.03709269
163	0x3d39c191	0.045350615
164	0x3d84a12e	0.06476055
165	0xbd0f7838	-0.03502676
166	0xbcca3f2e	-0.02468833
167	0xbd7a1f48	-0.06106499
168	0x3c492093	0.012275833
169	0xba696717	-0.0008903606
170	0xbd888b4c	-0.06667194
171	0xbd954db2	-0.0729021
172	0x3d91eb7d	0.07124994
173	0x3c7c0df8	0.01538419
174	0x3d560c29	0.05225769
175	0x3cf2d141	0.029640796
176	0x3bcea602	0.0063064108
177	0x3daef920	0.085436106
178	0xbd968ff4	-0.07351676
179	0x3db9b8d7	0.090684585
180	0xbd482dec	-0.04887192
181	0xbc10fa0a	-0.008848676
182	0xbd818689	-0.06324489
183	0xbd8b80d3	-0.06811681
184	0xbd12bc35	-0.03582402
185	0x3bf92933	0.0076037883
186	0xbcd65054	-0.02616135
187	0x3dade8d0	0.08491671
188	0xbd5f3952	-0.054498024
189	0x3da9d868	0.08293229
190	0x3d7edea0	0.06222403
191	0x3da045d8	0.07825822
192	0xbd10d043	-0.035354864
193	0xbb32f355	-0.0027305682
194	0x3d5ecff5	0.054397542
195	0xbce399d1	-0.027783306
196	0xbc0b163c	-0.008489188
197	0x3d70c71e	0.058783643
198	0x3cdf7aae	0.027280178
199	0x3d2a912b	0.04164235
200	0x3d4ec150	0.050477326
201	0xbc95d8b3	-0.018291807
202	0xbd5907b9	-0.05298588
203	0x3c6be308	0.01439739
204	0xbccee288	-0.025254503
205	0x3d0400ec	0.03222744
206	0x3c1fd4ef	0.009755357
207	0xbca81941	-0.020519855
208	0x3d66c587	0.05634072
209	0xbd86c648	-0.06580788
210	0x3d5f8de4	0.054578677
211	0xbd6b5fba	-0.05746434
212	0xbc215383	-0.009846571
213	0x3d3f4b96	0.046702944
214	0x3d35d5e9	0.044393454
215	0x3d0055c2	0.031331785
216	0x3c3de238	0.011589579
217	0xbd6ce9ff	-0.057840344
218	0x3d7f9489	0.062397514
219	0x3d8c6e30	0.06856954
220	0xbd37c8d6	-0.044869266
221	0x3d5d2ff6	0.054000817
222	0xbd4f6880	-0.05063677
223	0x3b560b63	0.0032660596
224	0x3cd07cba	0.0254501
225	0x3d670964	0.05640544
226	0x3b556ad2	0.003256489
227	0xbd56ff41	-0.052489523
228	0x3d811dfc	0.06304547
229	0xbcd878ab	-0.026424726
230	0xbd2a62d9	-0.041598175
231	0xbd46f8e2	-0.048577197
232	0x3da0b10c	0.07846269
233	0xbd70fee9	-0.05883685
234	0xbd81d1f6	-0.06338875
235	0x3d8907ef	0.06690966
236	0x3daf4ccf	0.08559572
237	0x3d5fd8a7	0.054649975
238	0xbd73f467	-0.059559252
239	0x3d83d574	0.06437197
240	0x3da5cf99	0.08096237
241	0x3d572254	0.052522972
242	0xbd62ead7	-0.055399742
243	0xbb4824ae	-0.003053944
244	0xbd55dbb9	-0.052211497
245	0xbc93c60f	-0.018038778
246	0x3d20ea2d	0.039285827
247	0xbd570b72	-0.05250115
248	0xbd933b2a	-0.07189019
249	0xba2a55d0	-0.00064977724
250	0x3d51b3b7	0.05119678
251	0x3d6574d2	0.05601961
252	0x3cad2e50	0.021140248
253	0x3d2fb1f8	0.042894334
254	0xbd463bc3	-0.048396837
255	0x3d614948	0.055001527

net.3.bias f4 [32]
0	0xbc6da170	-0.014503822
1	0xbcaed4b2	-0.021341655
2	0x3d046225	0.03232016
3	0x3d1ff506	0.039052032
4	0xbd142893	-0.036171507
5	0x3d16e435	0.03683873
6	0x3d845347	0.064611964
7	0x3d248570	0.04016632
8	0x3c583dab	0.013198297
9	0xbd8f0587	-0.06983476
10	0x3da58aef	0.0808314
11	0x3da72eea	0.08163245
12	0x3ad0d2dc	0.0015931982
13	0x3cd6168c	0.026133798
14	0xbd8f3b2d	-0.06993709
15	0xbd0fc9c9	-0.035104547
16	0xbd3a6aae	-0.045511894
17	0xbca62e4c	-0.020285748
18	0x3d853fa9	0.06506283
19	0x3ccdebec	0.02513691
20	0x3d73a785	0.05948593
21	0xbda440c0	-0.080201626
22	0x3db9b072	0.090668574
23	0xbcb420ff	-0.02198839
24	0xbb95b096	-0.00456817
25	0x3d6d8e9b	0.057997327
26	0xbcacae6e	-0.021079268
27	0xbd162d0b	-0.03666405
28	0x3d7b56c2	0.061362036
29	0xbdbbb346	-0.09165053
30	0xbd9b47ba	-0.0758204
31	0x3d8c2d2f	0.068445556

net.6.weight f4 [64, 32, 3, 3]
0	0x3d2c5b16	0.042079054
1	0xbd138b7c	-0.036021695
2	0x3c2acb09	0.010424384
3	0x3cd21b08	0.025647655
4	0xbd2b9330	-0.041888416
5	0x3cfa9dbd	0.030592794
6	0x3d270b58	0.040782303
7	0xbd7c8c1b	-0.061657052
8	0xbd2a16d4	-0.041525677
9	0xbb5c6eef	-0.0033635458
10	0xbc9249c4	-0.01785744
11	0xbd3c270c	-0.045935676
12	0xbbd691d5	-0.0065481463
13	0xbd738249	-0.05945042
14	0xbb386812	-0.0028138203
15	0xbce7c311	-0.028291257
16	0xbd2a75dc	-0.041616306
17	0xbd845787	-0.06462007
18	0x3d52e9e4	0.051492587
19	0x3ccc356b	0.024927815
20	0x3d0fafa5	0.035079617
21	0xbbf12fcb	-0.0073604337
22	0x3cdf09c9	0.027226346
23	0x3bb38787	0.0054788026
24	0x3cf3b307	0.029748453
25	0xbd8287e9	-0.06373579
26	0x3d0ab861	0.033867244
27	0xbd39bf9d	-0.045348752
28	0xbd2563e4	-0.040378466
29	0xbd20462f	-0.039129432
30	0x3cd9f818	0.026607558
31	0x3c99f3a1	0.01879293
32	0x3c3a7387	0.011380083
33	0xbd51a91e	-0.051186673
34	0x3d2e8281	0.042604927
35	0x3a52fc33	0.0008048445
36	0xbc94a590	-0.018145353
37	0x3d45d1c7	0.048295762
38	0x3bccdb40	0.0062517226
39	0xbd7507b2	-0.059821792
40	0xbb362248	-0.002779143
41	0xbc8a8d97	-0.016913218
42	0xbd34b1ea	-0.044114985
43	0xbd5ad334	-0.053424075
44	0xbd6b073c	-0.057379946
45	0xbd5ab01a	-0.0533906
46	0x3d4b9ba3	0.049708974
47	0x3be2a07f	0.0069161053
48	0xbccaabec	-0.024740182
49	0x3c9475c5	0.018122563
50	0x3c9abd0b	0.01888897
51	0x3c9ac3be	0.018892165
52	0xbd4c73ae	-0.04991501
53	0xbc4e90fe	-0.012607811
54	0xbd2968b8	-0.041359633
55	0xbceb0494	-0.028688706
56	0x3cf717ef	0.03016278
57	0x3d31d708	0.04341796
58	0xbd0418f9	-0.03225038
59	0x3d0d5dea	0.03451339
60	0x3d531d78	0.051541775
61	0x3c494986	0.012285596
62	0xbcb46631	-0.022021385
63	0xbd028835	-0.03186818
64	0x3bd007aa	0.00634857
65	0x3d1da2f6	0.03848549
66	0xbd83e37c	-0.064398736
67	0xbbd7ce1a	-0.0065858485
68	0x3ce786a5	0.028262446
69	0xbc557d70	-0.013030395
70	0x3d07f242	0.03319002
71	0xbcab70dd	-0.02092784
72	0x3c50afb5	0.012737204
73	0x3c839d6c	0.016066276
74	0xbcca47e0	-0.024692476
75	0x3bf8ee40	0.007596761
76	0xbd034406	-0.032047294
77	0x3c7cfe3b	0.015441473
78	0xbd03d3fa	-0.03218458
79	0xbc8e2cf6	-0.017355423
80	0x3d339bbd	0.043849695
81	0x3d38521d	0.045000184
82	0xbc82d99c	-0.015972905
83	0x3d0a7460	0.03380239
84	0xbc6071ff	-0.013699054
85	0xbc87ebdf	-0.016591964
86	0xbcdbff77	-0.026855214
87	0xbd31b225	-0.043382782
88	0xbd0c29b7	-0.03421947
89	0xbbe7b34d	-0.007070935
90	0xbc17b373	-0.009259093
91	0xbc866db0	-0.016409725
92	0xbcd2be9f	-0.02572566
93	0xbd30388b	-0.043022674
94	0xbd2ef4c2	-0.042713888
95	0xbc5497c9	-0.0129756415
96	0x3c28d379	0.010304325
97	0xbd493228	-0.0491201
98	0xbb67d69a	-0.0035375715
99	0xbc91a2b5	-0.01777778
100	0xbd14af98	-0.03630027
101	0x3c25a89b	0.010110999
102	0xba834526	-0.0010015115
103	0xbd42d2fd	-0.047564495
104	0x3c95027f	0.018189667
105	0xbd1caf45	-0.038253088
106	0x3d3dac1f	0.046306726
107	0xbd287474	-0.041126683
108	0x3cf025c8	0.02931489
109	0xbd30c0da	-0.043152668
110	0x3aeca72d	0.0018055193
111	0xbd2af008	-0.041732818
112	0xbd072b65	-0.03300037
113	0x3d523112	0.05131633
114	0xbc031562	-0.0080007035
115	0x3ca5c0a4	0.02023346
116	0xbd1bff49	-0.038085256
117	0xbd16fbfd	-0.03686141
118	0xbc961acd	-0.018323326
119	0xbd0bb844	-0.034111276
120	0xbc5f30e2	-0.013622494
121	0x3c7d7ff0	0.015472397
122	0xbd0ce885	-0.034401435
123	0xbccf5da1	-0.0253132
124	0x3d3bbf03	0.04583646
125	0xbd66534c	-0.05623178
126	0xbd8437cf	-0.06455957
127	0xbc6e0f4d	-0.014530015
128	0x3cb49fdb	0.022048881
129	0x3d47d3fd	0.048786152
130	0xbd3a27af	-0.045448
131	0x3d2ef558	0.042714447
132	0x3d4d7444	0.050159708
133	0xbd393666	-0.045217894
134	0x3cc8f900	0.024532795
135	0x3c355d6e	0.011069639
136	0x3d412902	0.04715825
137	0x3d4c9b68	0.049952894
138	0xbc6fcd3c	-0.014636334
139	0xbc3373e7	-0.010952926
140	0xbd360943	-0.044442426
141	0x3d153751	0.036429707
142	0x3d0eb28e	0.03483825
143	0xbc20a475	-0.009804835
144	0xb95bda4f	-0.00020966794
145	0x3cdc5add	0.026898796
146	0x3d37f872	0.04491467
147	0xb9d7af42	-0.00041138573
148	0x3d2d4e87	0.042311218
149	0x3c9c0224	0.01904399
150	0xbc783fa5	-0.015151893
151	0x3ca33663	0.019923395
152	0xbc5abbe3	-0.01335046
153	0xbcdbe3f4	-0.026842095
154	0xbcf4ff6f	-0.029906956
155	0x3d0273c3	0.03184868
156	0x3c37a591	0.011208908
157	0xbcf70183	-0.030152088
158	0x3cbbc748	0.022922173
159	0x3d166014	0.03671272
160	0x3ba9e4c0	0.00518474
161	0xbd2bb94a	-0.041924752
162	0x3c52e330	0.0128715485
163	0xbccd94bd	-0.025095338
164	0x3c800ae8	0.0156302
165	0xbcf206c9	-0.029544251
166	0xbd4a5f53	-0.049407315
167	0x3b83bc17	0.004020225
168	0x3d2ea753	0.04264004
169	0xbd535d97	-0.051602926
170	0x3bb50085	0.0055237436
171	0x3d490465	0.049076457
172	0xbadcf881	-0.0016858728
173	0x3c932f1d	0.017966801
174	0xbd7644f2	-0.060124345
175	0xbb5bce90	-0.003353987
176	0x3d46a4a2	0.04849685
177	0xbd36c312	-0.044619627
178	0x3d1d7633	0.0384428
179	0xbd258e1d	-0.040418733
180	0x3d150129	0.03637806
181	0x3d3402c5	0.043947954
182	0x3d1410ee	0.036148958
183	0xbd81b98a	-0.06334217
184	0xbd448302	-0.0479765
185	0xbd704676	-0.058660947
186	0x3d0fe765	0.035132784
187	0xba54eefc	-0.00081227697
188	0xbd3967c1	-0.045264963
189	0x3d1f9d1d	0.038968194
190	0x3c361d7f	0.011115431
191	0x3d1ab9ff	0.037775036
192	0x3d542a3c	0.05179809
193	0x3cb5ddfb	0.022200575
194	0xbd3348e3	-0.043770682
195	0xbc67f3be	-0.014157234
196	0xbd050b17	-0.03248128
197	0xbd645e40	-0.055753946
198	0xbc3e046f	-0.011597737
199	0x3d29749e	0.04137098
200	0x3ac64c77	0.001512899
201	0xbc69f7ea	-0.014280299
202	0x3d37ebf5	0.04490276
203	0x3d1dd653	0.038534474
204	0xbcea8a04	-0.028630264
205	0xbd80e173	-0.06293001
206	0x3d4ec6e9	0.050482664
207	0xbcd11eab	-0.025527319
208	0xbd2bcaff	-0.04194164
209	0xbd112035	-0.035431106
210	0x3c85e615	0.016345063
211	0xbc4b618c	-0.012413394
212	0x3d2ced4c	0.04221849
213	0xbc617ee2	-0.013763161
214	0xbce5da8b	-0.028058311
215	0x3d0e89ed	0.034799505
216	0xbc5528a6	-0.01301018
217	0xba9139bb	-0.0011079827
218	0xbb94c440	-0.0045399964
219	0xbd6ccddc	-0.05781351
220	0xbc94c34e	-0.018159535
221	0xbcdb7e4c	-0.026793621
222	0xbd3c88e1	-0.046028975
223	0xbccef16d	-0.025261605
224	0x3d1ce58f	0.03830486
225	0x3be2d4ff	0.006922364
226	0x3d2db10a	0.042405166
227	0xbcc839d7	-0.024441643
228	0x3c950be5	0.018194148
229	0xbc66610d	-0.014061225
230	0xbcfeb1f4	-0.031090714
231	0x3cd9fad6	0.026608866
232	0x3d5287d4	0.051399067
233	0xbd250680	-0.040289402
234	0xbd1cbfd6	-0.038268887
235	0x3d483fad	0.04888885
236	0x3d2798c0	0.040917158
237	0xbd4bae86	-0.049726985
238	0x3cd2fba4	0.025754757
239	0xbab7ee89	-0.0014032881
240	0xbc6214f1	-0.013798938
241	0xbce82212	-0.028336558
242	0xbbe05224	-0.0068457294
243	0x3bc3ab51	0.0059713502
244	0xbb2d9722	-0.0026487787
245	0x3d1ee1b6	0.038789473
246	0x3cfcae4a	0.030844826
247	0xbbbe834a	-0.0058139907
248	0x3d5551c7	0.052079942
249	0xbb0af328	-0.0021202061
250	0xbd11fd9a	-0.035642244
251	0x3be99dcc	0.0071294066
252	0x3c8be847	0.017078532
253	0xbd2fde70	-0.042936742
254	0x3ca2d45d	0.019876653
255	0x3d2afbd6	0.041744076

net.6.bias f4 [64]
0	0xbc1a2155	-0.009407361
1	0x3d58fb87	0.05297425
2	0x3cef96bf	0.029246686
3	0x3d7a87ef	0.061164793
4	0x3d700406	0.058597587
5	0xbc3a2d90	-0.011363402
6	0x3c88304d	0.016624594
7	0x3d4e0684	0.050299183
8	0xbb01cf18	-0.0019807275
9	0x3d89b375	0.06723682
10	0xbcc61301	-0.024178984
11	0xbb691f8f	-0.003557179
12	0x3d2a87e1	0.04163349
13	0xbd03adb4	-0.032148078
14	0xbd2ff3d6	-0.04295715
15	0x3d12ffc8	0.035888463
16	0xbd0651fb	-0.032793026
17	0x3a097116	0.00052429864
18	0x3d7999f7	0.060937848
19	0x3d5e50fd	0.054276455
20	0x3c1d28a5	0.00959221
21	0xbd32cfd3	-0.043655228
22	0xbc65e0b1	-0.014030621
23	0x3ce6ccd2	0.028173838
24	0x3cd8e260	0.026475132
25	0x3d41b6c8	0.047293454
26	0x3d9aadfc	0.07552716
27	0x3d9535ff	0.072856896
28	0xbccc48ca	-0.024937052
29	0xbd644861	-0.05573309
30	0xbc30cd89	-0.010791191
31	0x3bbe93d1	0.005815961
32	0xbcc1e415	-0.023668328
33	0x3b93e7b3	0.0045137047
34	0x3d1140d3	0.03546221
35	0xbcb7b4dd	-0.02242511
36	0xba991511	-0.0011679252
37	0xbbeaaca0	-0.007161692
38	0xbd671283	-0.05641414
39	0x3d66661a	0.056249715
40	0xbcfb0f85	-0.030647049
41	0xbc9bdbfc	-0.019025795
42	0xbd547c95	-0.051876623
43	0xbd199bf2	-0.037502237
44	0x3d98803f	0.07446336
45	0xbd30ae3a	-0.043134905
46	0xbd061ac2	-0.032740362
47	0x3c674dfb	0.014117713
48	0x3b689f6f	0.003549542
49	0x3d221a91	0.039576117
50	0x3d149610	0.036275923
51	0x3d9566ab	0.07294973
52	0xbc978835	-0.018497566
53	0xbd10e56a	-0.035375036
54	0x3ca79ac9	0.02045955
55	0x3d88f47b	0.06687256
56	0xbd438c12	-0.047741003
57	0xbd362ad0	-0.044474423
58	0x3c2fdb92	0.010733502
59	0xbcd45566	-0.025919627
60	0x3d02fc11	0.03197867
61	0x3d93d9cd	0.072192766
62	0x3d287768	0.0411295
63	0xbcc6aa8d	-0.024251247

net.9.weight f4 [128, 64, 3, 3]
0	0x3ce7408c	0.02822902
1	0xbca9538e	-0.020669725
2	0x3c8d5020	0.01725012
3	0xbc1e8985	-0.009676342
4	0xbc2392db	-0.009983744
5	0x3c86c945	0.016453395
6	0xbd027fd5	-0.03186019
7	0xbaa0a7f3	-0.0012257084
8	0xbc2a0f1b	-0.010379578
9	0xbcd38df1	-0.025824519
10	0x3cc8935f	0.024484335
11	0xbbe1f3b9	-0.006895509
12	0xbb9a87a7	-0.004715878
13	0xbd0b96d2	-0.03407938
14	0x3c26246d	0.0101405205
15	0xbd05a10d	-0.032624293
16	0xbd4dde61	-0.050260905
17	0xbcdb2aca	-0.026753802
18	0xbd294ee4	-0.041335
19	0xbcbfaaa5	-0.0233968
20	0x3d0f883d	0.035042036
21	0xbc832779	-0.016010033
22	0x3be76e5c	0.0070627164
23	0x3cf3864d	0.029727126
24	0xbc3789eb	-0.011202316
25	0x3cac7f49	0.021056788
26	0xbc31774a	-0.010831663
27	0xbb87c99a	-0.004143906
28	0xbcee77f9	-0.029109942
29	0x3ce23b24	0.027616091
30	0xbd4858dd	-0.04891287
31	0xba2d386f	-0.00066078355
32	0xbb4e5ee4	-0.0031489665
33	0xbd253d40	-0.040341616
34	0xbcb2a570	-0.021807402
35	0xbc9f0ce6	-0.01941533
36	0xbcdd183e	-0.026989099
37	0xbd478388	-0.048709422
38	0x3c53c170	0.012924537
39	0xbc0e4a4d	-0.008684707
40	0xbccbfc75	-0.024900654
41	0x3c85ddb7	0.016341073
42	0xbca2cc34	-0.019872762
43	0xbd0761e9	-0.03305236
44	0x3c41ad36	0.011821082
45	0xbc8449e1	-0.01614851
46	0xbb3cfe9b	-0.002883828
47	0xbd1a4242	-0.037660845
48	0x3ca92f3f	0.020652412
49	0xbc2c957b	-0.010533686
50	0xbc4f7bbd	-0.012663779
51	0xbd294d41	-0.04133344
52	0x3bcfda2a	0.006343146
53	0xbb539e3d	-0.0032290362
54	0x3c90e2e6	0.017686319
55	0xbcd83cef	-0.026396243
56	0xbcdbdea0	-0.026839554
57	0x3cf221bd	0.029557103
58	0xbcd72537	-0.026262863
59	0xbc22e0c0	-0.00994128
60	0x3c56571f	0.013082295
61	0x3c009a1c	0.007849243
62	0xbbe27609	-0.0069110435
63	0xbc4796b9	-0.012181931
64	0xbaff1b51	-0.0019463097
65	0xbc8f653b	-0.017504325
66	0xbd364b8c	-0.04450564
67	0x3ce9a81c	0.028522544
68	0xbd35e525	-0.044407982
69	0x3bae6c86	0.0053229956
70	0x3cadf293	0.021233832
71	0xbd37b94f	-0.04485446
72	0x3cd85466	0.026407432
73	0x3ccecdd3	0.025244629
74	0x3cf4f31e	0.029901084
75	0x3c423e54	0.0118556805
76	0x3d12fc30	0.035885036
77	0x3d070eed	0.03297322
78	0xbc4145b7	-0.0117964065
79	0xbd0a60d3	-0.033783745
80	0x38a3a2f1	7.802796e-05
81	0x3b98a628	0.0046584792
82	0x3ce9fd7c	0.028563254
83	0xbb41e603	-0.002958656
84	0xbc880985	-0.016606102
85	0xbcc02a33	-0.023457622
86	0xbd4ef6e9	-0.05052844
87	0x3cf1d6a3	0.029521292
88	0xbcba5ccb	-0.022749325
89	0xbd2522e5	-0.04031648
90	0x3a1d2e8d	0.00059960113
91	0xbd201cde	-0.03909003
92	0x3ceadb26	0.028668951
93	0x3c1e0939	0.009645754
94	0xbccbb16a	-0.024864871
95	0xbc970ec1	-0.018439652
96	0xbca2c83b	-0.019870868
97	0xbd1c114d	-0.038102437
98	0x3a4f3e30	0.000790569
99	0xbcf306b5	-0.029666284
100	0xbce661f8	-0.028122887
101	0x3cb61a9f	0.02222949
102	0x3c64ae9a	0.013957644
103	0x3c447279	0.011990183
104	0xbc9be2e5	-0.01902909
105	0xbcc4c20f	-0.024018316
106	0x3cbd5bc2	0.023115043
107	0x3bde66e4	0.006787168
108	0xbc950e96	-0.018195432
109	0xbccfabd8	-0.025350496
110	0x3cb0082a	0.021488268
111	0x3c79107a	0.015201682
112	0x3ac6c084	0.0015163575
113	0xbcfe6dca	-0.03105821
114	0xbd4056a3	-0.046957623
115	0xbd25453f	-0.04034924
116	0xbd0b1f26	-0.033965252
117	0xbd39cbfa	-0.045360543
118	0xbcbceafb	-0.023061266
119	0x3d0eae25	0.034834046
120	0x3b789de8	0.0037935916
121	0x3b85d351	0.004084029
122	0x3ca7be21	0.020476403
123	0x3be0a56e	0.0068556583
124	0xbcff91a2	-0.031197373
125	0xbc83205c	-0.016006641
126	0x3cc3063f	0.02380669
127	0x3cabd0e0	0.020973623
128	0xbc248ec8	-0.010043807
129	0xbcb3eff4	-0.021965005
130	0xbc03df9b	-0.008048917
131	0xbcde1cd9	-0.027113365
132	0xbcf44dda	-0.029822279
133	0x3cc686da	0.024234224
134	0xbd4b6e1e	-0.049665563
135	0x3cf34deb	0.02970024
136	0xbc9c0084	-0.019043215
137	0xbd009318	-0.03139028
138	0x3c8aa99f	0.016926585
139	0xbd46dbf7	-0.04854962
140	0xbc98d57b	-0.018656483
141	0x3cf29af6	0.029614907
142	0xbb591af6	-0.0033127642
143	0xbca2d4df	-0.019876895
144	0xbce9c4d1	-0.028536232
145	0xbbe43052	-0.006963768
146	0xbd1ad3fc	-0.03779982
147	0x3bd87b3a	0.0066064866
148	0x3ce3dcf5	0.027815321
149	0xbc9f3291	-0.019433292
150	0xbd4d5445	-0.050129194
151	0xbc659bee	-0.014014227
152	0xbd4e5fd5	-0.05038436
153	0x39f8048e	0.0004730564
154	0xbd4e128b	-0.050310653
155	0x3c467a28	0.012114085
156	0xbbcc01e3	-0.006225811
157	0xbd07e4de	-0.03317725
158	0x3ccc6b90	0.024953634
159	0x3c1a3f47	0.009414501
160	0xbd05871b	-0.03259955
161	0xbc4eec2d	-0.012629551
162	0xbd0f9b5e	-0.03506028
163	0x3c62e290	0.013847962
164	0xbd330ead	-0.043715168
165	0x3ce7bde8	0.028288797
166	0xbbdb920f	-0.006700761
167	0xbc32223e	-0.010872422
168	0x3c50806d	0.012725932
169	0xbd327e3c	-0.043577418
170	0x3cf620d5	0.030044952
171	0xbbcc1c2e	-0.006228945
172	0xbcf27342	-0.029595975
173	0x3ba980bb	0.0051728166
174	0xbd49901c	-0.0492097
175	0xbd204290	-0.03912598
176	0xbcf56605	-0.029955873
177	0x3d0617d7	0.03273758
178	0x3cb565af	0.022143213
179	0x3cee3c23	0.02908141
180	0xbc41e801	-0.011835099
181	0xbb817bf3	-0.0039515435
182	0x3c2d9668	0.010594942
183	0xbc60bc2e	-0.0137167405
184	0x3b930d4e	0.00448767
185	0x3c851a59	0.016247915
186	0x3bb600ed	0.0055543096
187	0x3d01eab2	0.031717964
188	0xbd0d7534	-0.0345356
189	0x3c9838af	0.018581716
190	0x3c655e58	0.013999544
191	0xba00af5e	-0.0004908944
192	0xbd236e1c	-0.03989993
193	0xbc547ae8	-0.012968756
194	0xbc312247	-0.010811395
195	0xbd4af85b	-0.049553256
196	0xbc48df5e	-0.012260286
197	0xbba2ed1f	-0.0049721147
198	0xbcc2fec6	-0.023803126
199	0xbd1df1b2	-0.038560577
200	0x3ccd1f63	0.02503938
201	0x3d0c673f	0.03427815
202	0x3cec3bd0	0.028837115
203	0xbc6797eb	-0.014135341
204	0x3c617c0b	0.013762484
205	0xbc7849a0	-0.015154272
206	0x3bce0680	0.006287396
207	0xbd0ed428	-0.034870297
208	0xbd2b541e	-0.041828267
209	0x3b7f44d6	0.0038950942
210	0xbd23be8f	-0.039976653
211	0x3c99b9c4	0.018765338
212	0x3badd5ab	0.005305012
213	0xbcc18839	-0.023624526
214	0xbce3ab2e	-0.027791586
215	0x3c0b8268	0.008514978
216	0x3ce3b54d	0.027796412
217	0x3cee2e4f	0.029074816
218	0x3b1ca01a	0.002389914
219	0xbcfee3cf	-0.031114487
220	0xbce127f5	-0.027484873
221	0xbd2cd0a6	-0.04219117
222	0xbd09e2b5	-0.03366347
223	0xbcf228f4	-0.029560544
224	0xbc8ba628	-0.017047003
225	0xbd0f892b	-0.035042923
226	0xbb754e9f	-0.0037430895
227	0x3c65213f	0.013984977
228	0x3ca4c823	0.020114964
229	0x3c87ab1c	0.016561083
230	0xbc8c14c8	-0.017099753
231	0xbb1503c5	-0.0022737843
232	0xbcdc8827	-0.026920391
233	0xbd29f33d	-0.041491736
234	0xbbe49f2f	-0.006976984
235	0xbb22477b	-0.0024761844
236	0xbcb003be	-0.02148616
237	0xb9fbc945	-0.00048024408
238	0x3beb4c8c	0.007180756
239	0x3c6dd047	0.014514989
240	0xbc1a6557	-0.009423575
241	0x3c8c0d61	0.017096223
242	0xbce36d9b	-0.027762225
243	0xbc8da0f1	-0.017288657
244	0x3c0b65d5	0.008508165
245	0x3b848a93	0.0040448396
246	0x3cff2b38	0.031148538
247	0xbd54f4a9	-0.05199114
248	0xbc99b17b	-0.018761387
249	0x3c96b081	0.01839471
250	0x3c9f024d	0.019410277
251	0xbc42e63a	-0.011895711
252	0xbc56cc9a	-0.013110304
253	0x3c85a0fd	0.016312117
254	0x3c478e4d	0.012179923
255	0x3cd6df68	0.026229575

net.9.bias f4 [128]
0	0x3cd8190f	0.026379136
1	0xbce5ee43	-0.028067714
2	0xbd0b85ee	-0.034063272
3	0x3b49737c	0.0030739
4	0xbcc26794	-0.02373103
5	0x3c9eddbb	0.019392839
6	0xbc020e7a	-0.007938022
7	0x3cfad24f	0.030617861
8	0x3ca89733	0.02057991
9	0xbd0e9f5e	-0.034819953
10	0x3d29208f	0.041290816
11	0xbd1fc648	-0.039007455
12	0xbc41a6a9	-0.01181952
13	0x3bf42acf	0.0074513922
14	0x3b86d955	0.0041152635
15	0xbd34e91e	-0.04416763
16	0x3cc3b2bf	0.023888944
17	0xbcbea706	-0.023273002
18	0x3d437c2a	0.047725834
19	0x3c6290da	0.013828481
20	0xbb90b3a2	-0.004415945
21	0x3ca561dc	0.020188265
22	0xbcf65f06	-0.030074608
23	0xbb1c4d00	-0.0023849607
24	0x3c85cc94	0.016332902
25	0x3b9440bc	0.0045243185
26	0xbc873d2c	-0.016508661
27	0x3c57f4b2	0.0131808985
28	0x3d02ab7e	0.03190183
29	0xbd00920f	-0.031389292
30	0x3b286a16	0.0025697998
31	0x3d5c2d9e	0.05375444
32	0x3ceeb882	0.029140715
33	0xbd10fed8	-0.035399288
34	0xbc0d6b13	-0.0086314855
35	0x3c391243	0.011295858
36	0x3b728b6e	0.0037009376
37	0xbd1f987c	-0.03896378
38	0x3cf0a1cd	0.029374028
39	0x3d560941	0.05225492
40	0xbbd71c70	-0.0065646693
41	0x3c0bfde9	0.008544424
42	0x3cd8c861	0.026462736
43	0x3cb6e1d9	0.02232449
44	0x3cda1e92	0.026625905
45	0xbd43db8f	-0.04781681
46	0x3cb73eaf	0.022368757
47	0xbb816644	-0.0039489586
48	0x3c296a0a	0.010340223
49	0xbc41b522	-0.011822971
50	0x3d5b7605	0.05357935
51	0x3cf79727	0.030223442
52	0x3c8aa3e5	0.016923854
53	0x3ccb693f	0.024830459
54	0xbd247497	-0.04015025
55	0x3d474771	0.048652116
56	0xbcf71a4a	-0.030163903
57	0xbc1db2b7	-0.0096251285
58	0x3cb9825c	0.022645168
59	0x3c892299	0.01674013
60	0xbceb5834	-0.028728582
61	0x3d543fe3	0.05181874
62	0xbc579ef1	-0.013160453
63	0xbc890441	-0.016725661
64	0x3d4634b0	0.04839009
65	0xbc657531	-0.014004991
66	0xbcbc7190	-0.02300337
67	0x3d050d6d	0.032483507
68	0x3b668d2e	0.0035179364
69	0xbd52f730	-0.051505268
70	0x3c03a61b	0.008035208
71	0x3d3d2822	0.04618085
72	0xbccadaa6	-0.024762463
73	0x3ce8de19	0.028426217
74	0xbc50be56	-0.012740692
75	0x3d626183	0.055268776
76	0xbc9dd50d	-0.01926663
77	0x3a1862c4	0.0005813057
78	0xbd236f0a	-0.039900817
79	0x3d669094	0.056290224
80	0x3c6ae154	0.014335949
81	0xbd057ef7	-0.032591786
82	0x3c903eba	0.017608035
83	0xbc29e5e5	-0.0103697525
84	0x3d45c6ba	0.048285224
85	0xbd3c4e44	-0.045973077
86	0x3ccc4f4a	0.024940152
87	0xbc779d9b	-0.01511326
88	0x3a9f66ea	0.0012161408
89	0xbca77436	-0.020441156
90	0x3d41cbe5	0.04731359
91	0x3c7ff036	0.015621236
92	0xbca08681	-0.019595386
93	0x3ca08f29	0.019599514
94	0xbc530d93	-0.012881654
95	0xbd43b503	-0.047780048
96	0x3c8cc430	0.017183393
97	0x3c3b5d71	0.011435852
98	0x3d54307c	0.05180405
99	0x3d1f395f	0.038873073
100	0xbd35886f	-0.044319566
101	0xbd371c51	-0.04470474
102	0x3cce4e36	0.025183778
103	0x3c9c4cf1	0.019079657
104	0x3d5148a8	0.05109468
105	0xbc325076	-0.010883441
106	0x3c1268f4	0.008936156
107	0xbb1f5742	-0.0024313484
108	0x3ca231e1	0.019799175
109	0xbd36ac4a	-0.0445979
110	0xbb98115d	-0.0046407417
111	0xbb3d39a5	-0.002887347
112	0x3ca6a82e	0.020343866
113	0x3c4a9aba	0.012365991
114	0x3cd2aca5	0.025717089
115	0xbc8c3d35	-0.01711903
116	0xbc928391	-0.017885001
117	0x3c414562	0.011796327
118	0x3b582616	0.0032981685
119	0x3c931b71	0.017957421
120	0x3cffabb2	0.0312098
121	0xbc19507a	-0.009357566
122	0x3c5fc6a0	0.013658196
123	0x3b9f35f3	0.004858726
124	0xbc6d4313	-0.014481324
125	0xbbbcb06b	-0.0057583353
126	0xbce9860d	-0.028506303
127	0x3d3a0ebf	0.04542422

fc.weight f4 [2, 128]
0	0x3ba48d97	0.0050217616
1	0x3c2ac4ac	0.010422867
2	0xbd878c72	-0.06618585
3	0x3ac9ede3	0.0015405979
4	0xbd57af12	-0.052657194
5	0xbd75a882	-0.059975155
6	0x3d82e7b6	0.063918516
7	0x3d525e41	0.05135942
8	0xbdabba80	-0.083851814
9	0x3d5c6aa5	0.05381264
10	0xbcb53cf4	-0.022123791
11	0x3d6e5ad1	0.058192078
12	0xbd49f00c	-0.049301192
13	0xbd5864ec	-0.05283062
14	0x3d9ea353	0.077459954
15	0x3daf428d	0.085576154
16	0x3d98e13c	0.07464835
17	0xbd63a419	-0.055576418
18	0x3cf1e956	0.029530209
19	0xbcf9ca16	-0.03049187
20	0xbd8ec75a	-0.06971617
21	0x3d11c87c	0.035591587
22	0xbbad6744	-0.0052918512
23	0xbd446233	-0.047945213
24	0x3d2a8792	0.041633196
25	0xbdcee3f8	-0.10102075
26	0xbd853e3e	-0.065060124
27	0x3da3cd67	0.07998162
28	0xbd405554	-0.046956375
29	0x3d6fedb5	0.058576304
30	0xbda34ad6	-0.07973258
31	0xbdadaea6	-0.08480577
32	0xbdc0d7ea	-0.09416182
33	0x3da1bdb9	0.07897515
34	0xbd35fb6d	-0.04442923
35	0xbd001269	-0.031267557
36	0x3d0b1b37	0.0339615
37	0x3ae74350	0.0017643962
38	0xbd429bd4	-0.04751189
39	0x3c97a42b	0.018510899
40	0xbdbd4f8e	-0.092436895
41	0xbc475e28	-0.012168445
42	0xbdafb662	-0.08579709
43	0xbdbe69d0	-0.09297526
44	0x3d8c9355	0.06864039
45	0xbc7d699c	-0.015467074
46	0xbdbd9a9b	-0.09258004
47	0xbdd1826e	-0.102299556
48	0xbd2084fa	-0.039189316
49	0x3d018e30	0.03162974
50	0x3c7cd1f6	0.015430918
51	0x3c8276da	0.015925813
52	0xba6a3260	-0.0008933898
53	0x3d484b9c	0.04890023
54	0x3d406e27	0.04698005
55	0xbcdc8759	-0.026920008
56	0xbd0bb7b0	-0.034110725
57	0xbcf0d13b	-0.029396644
58	0x3d034074	0.03204389
59	0x3ccd41d2	0.0250558
60	0xbdc4fb77	-0.096182756
61	0xbd12551e	-0.035725705
62	0xbd03dfbd	-0.032195795
63	0x3d84487b	0.06459137
64	0xbdc5a224	-0.096500665
65	0x3c1bd677	0.009511582
66	0xbcea4a61	-0.02859992
67	0x3d0e117f	0.034684654
68	0xbd5d7408	-0.054065734
69	0x3da1c03e	0.078979954
70	0xbda46db3	-0.08028736
71	0x3c14f081	0.009090544
72	0x3d9f1b85	0.07768921
73	0xbc69df69	-0.014274457
74	0x3d2a54e6	0.04158487
75	0xbd71cfe4	-0.05903615
76	0x3d9572a9	0.0729726
77	0x3d99c078	0.075074136
78	0xbd8c3236	-0.068455145
79	0xbdc496df	-0.09599089
80	0xbdaada55	-0.08342425
81	0xbca0c45f	-0.019624887
82	0xbd826908	-0.06367689
83	0xbd0587ad	-0.032600094
84	0xbd73597a	-0.059411503
85	0x3ba58096	0.005050729
86	0x3d03730c	0.03209214
87	0x3caf12cf	0.021371273
88	0x3d568771	0.05237526
89	0xbda21542	-0.07914211
90	0xbdaf9505	-0.08573345
91	0x3c24eeea	0.010066727
92	0x3cdec872	0.02719519
93	0xbd60ae6c	-0.05485384
94	0x3c3695a5	0.0111440765
95	0x3d2c8bce	0.042125516
96	0x3ccd6681	0.025073292
97	0xbd12c3b8	-0.035831183
98	0xbdbb4c5a	-0.09145422
99	0xbc700d4d	-0.014651609
100	0xbab20a28	-0.0013583349
101	0x3d2d4067	0.042297747
102	0xbdc02003	-0.09381106
103	0xbd4befa5	-0.04978909
104	0xbbf50d21	-0.0074783717
105	0x3d67809b	0.056519132
106	0x3d822b8b	0.063559614
107	0x3d8954fe	0.06705664
108	0x3be8d287	0.007105175
109	0x3d6ddf42	0.058074243
110	0xbd2c3f20	-0.04205239
111	0xbd4150c8	-0.04719618
112	0x3d345faf	0.044036563
113	0xbcac203a	-0.02101146
114	0xbd4ebae2	-0.050471194
115	0xbda7294f	-0.08162176
116	0xbd25f31b	-0.040515047
117	0xbd0f3171	-0.03495926
118	0xbd3c95c7	-0.046041276
119	0xbd5f5bcd	-0.054530907
120	0x3ba410bd	0.005006878
121	0xbdaf9f05	-0.085752524
122	0xbdb55440	-0.0885396
123	0xbb4b8633	-0.003105533
124	0x3c52bc9c	0.012862351
125	0xbd10fe58	-0.03539881
126	0x3db45109	0.08804519
127	0xbd232a1f	-0.03983509
128	0x3c0067ea	0.007837275
129	0xbcf0bc57	-0.029386682
130	0x3d399272	0.045305677
131	0x3d5ab5bd	0.053395975
132	0x3dbcd4df	0.092202894
133	0x3d5353bf	0.05159354
134	0x3cd87b69	0.026426034
135	0x3d20d48b	0.039265197
136	0x3d4c8f76	0.049941503
137	0xbc24458a	-0.010026345
138	0x3d9c079d	0.076186396
139	0x3d07e5bb	0.033178072
140	0x3dbdd3b5	0.092688955
141	0x3da4298b	0.08015736
142	0x3d823c3f	0.06359147
143	0x3c18ebb4	0.00933354
144	0xbcc79193	-0.024361407
145	0x3d46e4ee	0.048558168
146	0x3dc3d826	0.095627114
147	0xbd6f03af	-0.058353122
148	0xbc0c2d9b	-0.008555795
149	0x3c6bcdda	0.014392341
150	0xbd0e20ec	-0.034699365
151	0xbd40a0ba	-0.04702828
152	0x3cf88f7d	0.030341858
153	0x3d9de14f	0.0770899
154	0xbd7d6f79	-0.061873887
155	0xbd6a3bcc	-0.057185933
156	0x3d6ed8cb	0.05831222
157	0xbd071de3	-0.032987487
158	0x3d1831bf	0.037156817
159	0xbcddf130	-0.027092546
160	0x3c2ed4cb	0.010670851
161	0xbd4863fd	-0.04892348
162	0x3cc01366	0.02344675
163	0xbd91f69a	-0.07127114
164	0xbc07238f	-0.008248224
165	0xbda0e3dc	-0.07855961
166	0x3d5bf397	0.053699102
167	0x3d7da1ab	0.061921757
168	0xbd29fd2e	-0.041501217
169	0xbd325eb2	-0.04354734
170	0x3dd0bf5b	0.10192748
171	0xbbc031ae	-0.0058652973
172	0xbd83ece3	-0.06441667
173	0xbcf1fd13	-0.02953962
174	0x3d54e794	0.051978663
175	0xbd3e4558	-0.04645285
176	0xbd51c5d9	-0.051214073
177	0xbccef852	-0.025264893
178	0x3d81f80d	0.0634614
179	0xbd073fe1	-0.033019904
180	0xbd35923d	-0.044328917
181	0xbd85f01b	-0.06539937
182	0xbc9a9b4a	-0.018872876
183	0x3cd19254	0.02558247
184	0x3c99b21f	0.018761693
185	0xbd8b21ba	-0.06793542
186	0x3d11518d	0.035478164
187	0x3c8f20a2	0.017471615
188	0x3d1f922a	0.038957752
189	0x3dccd1b4	0.10000935
190	0xbb7b27aa	-0.0038323202
191	0xbda6612c	-0.08124003
192	0x3d2ff032	0.042953677
193	0xbd9f1bea	-0.07768996
194	0xbd405e97	-0.046965208
195	0x3d1b784f	0.037956532
196	0xba1b0d6b	-0.000591478
197	0x3d4bbf82	0.049743183
198	0x3c32d958	0.010916077
199	0x3daad11b	0.08340665
200	0x3d43c7a2	0.047797807
201	0x3d74df12	0.05978305
202	0xbd754da2	-0.05988849
203	0xbbce83e0	-0.006302342
204	0x3c40173c	0.0117242895
205	0xbc8c643e	-0.017137643
206	0x3bb30698	0.0054634325
207	0x3d78cf1a	0.060744382
208	0x3d5637b8	0.05229923
209	0xbd818035	-0.06323282
210	0x3c5b322d	0.013378662
211	0x3ca3a521	0.0199762
212	0x3ca65c0f	0.020307569
213	0xbd4ee7f7	-0.050514188
214	0xbd262e1f	-0.04057133
215	0xbd25ad9a	-0.040448762
216	0xbd5b902a	-0.053604282
217	0xbd2a33a0	-0.04155314
218	0x3d9c57f3	0.076339625
219	0xbbb2d23f	-0.005457192
220	0x3cc511ba	0.024056304
221	0x3c9436b7	0.018092496
222	0x3d8a8409	0.06763465
223	0xbc88b151	-0.016686114
224	0xbd756fb6	-0.05992099
225	0xbd47672b	-0.048682373
226	0xbcb2607a	-0.02177452
227	0x3d8a7214	0.0676004
228	0xbdabad4c	-0.08382663
229	0x3cba749d	0.022760684
230	0x3cdf4011	0.027252229
231	0x3aa55087	0.00126125
232	0x3da6646f	0.08124625
233	0x3ad6d74a	0.0016391065
234	0xbd18d205	-0.037309665
235	0x3d4a051d	0.049321283
236	0x3d6d7c19	0.057979677
237	0x3cd4dd12	0.02598432
238	0xbd05fc78	-0.032711476
239	0x3d8472f5	0.06467239
240	0xbd7f40ab	-0.06231753
241	0x3d22c290	0.03973633
242	0xbd92b533	-0.07163467
243	0xbd9dd759	-0.0770709
244	0x3d18cb85	0.037303466
245	0x3d8dfc0e	0.06932841
246	0x3dcabc09	0.09899146
247	0x3bb80f00	0.0056170225
248	0x3d289433	0.04115696
249	0x3db69126	0.089144036
250	0xbd6244d9	-0.05524144
251	0x3c1a5642	0.0094199795
252	0x3d9e9a4c	0.077442735
253	0xbd74c359	-0.05975661
254	0xbd2ce942	-0.04221464
255	0x3ce718af	0.028210012

fc.bias f4 [2]
0	0xbd34646c	-0.044041082
1	0x3d64ca0b	0.055856746
